final_project_last_v2/saved_models/lstm.pth (torch, 215750 bytes, 9 tensors)

lstm.weight_ih_l0 f4 [256, 10]
-0.11785454 -0.029206803 -0.033550765 -0.13067058 -0.09904085 0.023822721 0.08013415 0.014696194
0.008981595 0.033409096 0.00090861326 -0.032198004 0.11773366 -0.053519905 0.011554594 -0.04279359
-0.080332935 0.08864101 0.036177713 -0.0069174357 0.0158607 0.10356059 0.08658427 0.08527033
0.056310736 -0.016565323 -0.12741096 -0.019376604 -0.010157955 0.06371389 0.10349887 -0.122011945
0.084448144 0.08973072 0.09117174 0.07556796 -0.050146937 -0.07572235 -0.023346283 0.006782332
-0.051553573 -0.013774824 0.09879939 0.059627075 0.044012386 0.05633588 0.026960358 -0.048895203
-0.061734717 -0.014482405 -0.023066916 0.035356797 -0.059436187 -0.084004626 0.01903518 0.07568708
-0.10482611 -0.10617286 0.06204337 -0.12409449 0.015726611 0.009594117 0.09945124 0.113819174
0.015342747 0.06666356 0.012233876 0.09761015 -0.033032198 0.046880353 0.09575485 0.08070708
0.01735731 -0.04095032 -0.030299269 0.061923843 0.060372848 -0.04013507 -0.11101321 -0.09102626
-0.06518291 -0.093197115 -0.0029185936 -0.053659953 -0.11827395 0.09963577 0.009034663 0.068969004
-0.029239524 -0.06037237 0.06794218 -0.10927424 -0.060762025 0.103584155 -0.06181949 -0.061830938
-0.044013098 -0.008032097 0.03260302 -0.039731495 -0.037478086 -0.06295975 0.013648818 -0.113713905
-0.052421615 0.036702067 0.011973777 -0.005322045 0.007826876 0.015153751 -0.11515072 0.053785086
-0.03458476 0.059807327 0.121982865 -0.005317465 0.10657732 0.055799123 -0.09939275 -0.09315315
-0.06893772 0.10634688 0.08687957 0.11151078 0.008919011 -0.11132494 -0.0806481 -0.06100928
0.09277569 -0.051673934 -0.033234786 0.088925466 0.10100133 0.1170232 -0.0671457 0.08476663
0.068380065 -0.10977666 -0.10828695 0.09955402 -0.0011847648 -0.08258926 -0.11113896 -0.07677594
0.022907935 0.049501263 0.026743405 0.0066346913 -0.0010327495 0.12571132 -0.03902626 0.104475684
-0.036054894 0.08097123 -0.0067390036 -0.06616147 0.08282596 -0.05990307 0.12249276 0.11924363
0.084185906 -0.03851694 0.12008486 0.09182478 -0.09224534 -0.046724234 0.079719186 0.052577615
-0.0760424 0.070442244 -0.08775281 -0.0138330525 -0.04308181 0.053089507 0.06079472 0.09448379
-0.07630855 -0.092376925 -0.068865106 0.09722815 -0.09526444 -0.08643367 -0.116277926 0.0397098
-0.04847644 -0.11932969 0.03402921 0.023488704 0.0877883 0.061679363 -0.15284449 -0.06725721
0.032474373 0.03824677 -0.0022407197 0.035874177 0.024739841 0.110064834 -0.021174561 0.098938525
-0.102389075 -0.09389271 -0.036070365 -0.10260805 0.08862943 0.075775504 -0.12775327 0.06130338
0.07825276 -0.021746006 -0.057163507 0.016723862 0.06045902 0.05015737 -0.11397432 0.052988466
0.049693022 0.0056118853 -0.14070794 -0.100532465 -0.0059701805 -0.08008141 0.07709992 0.026781002
0.106193386 0.061668247 0.09737835 0.07821545 -0.0073069707 0.11199353 0.007866303 0.008366347
0.09228897 0.057871077 -0.11349447 0.018929495 -0.07293507 0.055708785 -0.09776943 -0.044584796
-0.057265926 -0.044140458 0.09889442 0.022430893 0.09758941 -0.019068427 -0.10595219 0.10039825
-0.055859417 -0.031762186 0.07141828 -0.061944004 -0.06577782 0.049280044 -0.03226174 0.09289151
00000000: b95d f1bd 1b43 efbc 876c 09bd 82ce 05be
00000010: eed5 cabd de27 c33c 601d a43d 4ec8 703c
00000020: 8a27 133c fad7 083d 0130 6e3a 0ee2 03bd
00000030: 581e f13d b037 5bbd 7b4f 3d3c 5548 2fbd
00000040: 9885 a4bd 6b89 b53d 152f 143d a8ab e2bb
00000050: 4cee 813c 9317 d43d 1853 b13d 36a2 ae3d
00000060: 16a6 663d 00b4 87bc 0578 02be afbb 9ebc
00000070: 8d6d 26bc 6e7c 823d 37f7 d33d 66e1 f9bd
00000080: 26f3 ac3d bdc4 b73d 40b8 ba3d 60c3 9a3d
00000090: e066 4dbd 5214 9bbd b440 bfbc 533e de3b
000000a0: d729 53bd cdaf 61bc 5657 ca3d 853b 743d
000000b0: 5546 343d 74c0 663d f8db dc3c 5646 48bd
000000c0: 8bdd 7cbd 9c47 6dbc d4f6 bcbc 4ad2 103d
000000d0: 5c73 73bd 9e0a acbd aaef 9b3c d401 9b3d
000000e0: 12af d6bd 2871 d9bd 3021 7e3d 4125 febd
000000f0: 18d5 803c a530 1d3c 17ad cb3d 071a e93d
00000100: 2560 7b3c e886 883d 9870 483c d5e7 c73d
00000110: c54c 07bd 9d05 403d 1e1b c43d c149 a53d
00000120: eb30 8e3c 86bb 27bd 2c36 f8bc dba3 7d3d
00000130: 8549 773d ac64 24bd e55a e3bd fa6b babd
00000140: 9e7e 85bd 21de bebd e045 3fbb 8aca 5bbd
00000150: 9d39 f2bd d70d cc3d 2006 143c 9f3f 8d3d
00000160: ba87 efbc 0549 77bd 4525 8b3d 2ccb dfbd
00000170: 9ae1 78bd ee23 d43d 6f36 7dbd 7042 7dbd
00000180: 1447 34bd 0e99 03bc bf8a 053d 7ebd 22bd
00000190: 9f82 19bd 0bf1 80bd 4b9f 5f3c d6e2 e8bd
000001a0: 0cb8 56bd e854 163d a92d 443c 8d64 aebb
000001b0: 4c3c 003c 7047 783c 24d4 ebbd c04d 5c3d
000001c0: c0a8 0dbd 87f8 743d 27d2 f93d 213e aebb
000001d0: 3645 da3d 9f8d 643d 6d8e cbbd 14c7 bebd
000001e0: 382f 8dbd 65cc d93d eaed b13d c45f e43d
000001f0: 0b21 123c 55fe e3bd d52a a5bd dee4 79bd
00000200: 2e01 be3d 0ca8 53bd 3321 08bd 8e1e b63d
00000210: c9d9 ce3d dca9 ef3d af83 89bd 209a ad3d
00000220: d90a 8c3d 96d2 e0bd 8cc5 ddbd fae2 cb3d
00000230: 1c4a 9bba 8f24 a9bd d39c e3bd b43c 9dbd
00000240: 6ca9 bb3c d6c1 4a3d fc14 db3c d367 d93b
00000250: 535d 87ba 78ba 003e 00da 1fbd 59f7 d53d
00000260: 4cae 13bd 3fd4 a53d dcd2 dcbb aa7f 87bd
00000270: a8a0 a93d ec5c 75bd 7cdd fa3d 0136 f43d
00000280: a969 ac3d f0c3 1dbd 0def f53d a10e bc3d
00000290: 20eb bcbd e961 3fbd d043 a33d a05b 573d
000002a0: 1ebc 9bbd 0644 903d bfb7 b3bd 07a4 62bc
000002b0: 8d76 30bd 6274 593d e203 793d b880 c13d
000002c0: a847 9cbd 1d30 bdbd 2609 8dbd 8d1f c73d
000002d0: 011a c3bd 2304 b1bd 1f23 eebd bea6 223d
000002e0: 3b8f 46bd 2063 f4bd 3762 0b3d 626b c03c
000002f0: 5aca b33d 80a3 7c3d 4483 1cbe 26be 89bd
00000300: d903 053d a5a8 1c3d 0ad9 12bb cdf0 123d
00000310: 35ab ca3c ac69 e13d 4676 adbc 48a0 ca3d
00000320: 5db1 d1bd d24a c0bd 85be 13bd 2b24 d2bd
00000330: 5983 b53d 3030 9b3d c1d1 02be 4119 7b3d
00000340: fc42 a03d ae24 b2bc 4824 6abd 7b00 893c
00000350: e1a3 773d d071 4d3d 5e6b e9bd 6f0a 593d
00000360: e98a 4b3d e8e3 b73b be15 10be f7e3 cdbd
00000370: 81a1 c3bb b901 a4bd 90e6 9d3d d563 db3c
00000380: eb7b d93d d897 7c3d 4d6e c73d 6c2f a03d
00000390: 506f efbb dd5c e53d abe1 003c 0113 093c
000003a0: 0002 bd3d 390a 6d3d ca6f e8bd 0712 9b3c
000003b0: fb5e 95bd e52e 643d 573b c8bd 8c9e 36bd
000003c0: ad8f 6abd a0cc 34bd 2889 ca3d fec0 b73c
000003d0: f5dc c73d 6435 9cbc 76fd d8bd 999d cd3d
000003e0: d8cc 64bd 1119 02bd bf43 923d ffb8 7dbd
000003f0: 86b6 86bd dfd9 493d e324 04bd e73d be3d

lstm.weight_hh_l0 f4 [256, 64]
0.00051507546 -0.026625702 -0.10190624 0.13053438 -0.01725349 -0.02634296 -0.06352184 -0.01697678
-0.07193342 0.03423872 0.12140373 0.10002253 0.03173483 -0.12401662 0.08674894 0.0113028195
-0.065792605 -0.060527626 0.02206073 0.030666972 0.070357375 -0.11581716 0.05007567 0.06972327
0.13446608 0.040493403 -0.08527136 -0.06790578 -0.0936246 0.08613855 -0.11247228 -0.11506991
-0.041104827 0.024254667 -0.13006414 0.033000793 -0.10517041 -0.013002417 0.02489341 0.002136429
-0.034077015 -0.008214502 -0.09906134 -0.06530768 0.118567236 0.038281295 0.07824349 0.12215986
0.007065191 -0.013896754 0.02461132 -0.057833206 0.0055414904 -0.022522565 -0.007950304 -0.09310669
-0.09537531 0.010758542 -0.096565984 -0.07245687 0.03444401 0.082597785 0.06492683 -0.058617026
0.108399265 -0.04767898 0.063293524 -0.005676278 -0.081747726 0.13434869 0.031362966 -0.14884444
-0.0078059784 -0.045009203 0.100859985 0.004870817 -0.12242794 -0.10581907 -0.10342884 0.0005518358
0.029209942 -0.032449447 -0.096534036 -0.052258447 -0.07480787 -0.08572235 0.10471498 -0.03154078
-0.10563418 0.12065324 0.081712194 -0.073995665 -0.031566553 -0.011009991 -0.042880703 -0.045112126
-0.001055084 0.029110016 -0.010276486 0.124633424 -0.012963788 0.0772357 0.13520661 -0.10055717
0.014559539 0.024196092 -0.053807966 0.11403416 -0.10726186 0.105194785 0.06461224 0.026822941
-0.12370614 0.10962838 -0.11181766 0.096153006 -0.059513748 0.12289296 0.024729693 -0.12989698
0.017564407 0.031653088 -0.06702205 -0.010550121 -0.129537 -0.08646897 0.09748466 -0.06946497
0.03787675 0.0067761093 -0.03220787 0.040426664 0.009998004 0.0025601909 -0.036968146 -0.11989252
-0.09271286 0.13195512 0.10657911 -0.03373184 0.07945474 -0.06768472 0.0465178 0.07041979
-0.07149883 -0.0414585 0.06832238 0.046103 0.062768504 -0.029380731 0.11497264 0.1127361
0.09159233 0.026082437 0.067612655 0.1057329 0.036892366 0.058967058 -0.04292346 -0.08523891
-0.09136508 0.09828758 0.017573252 0.019578 -0.11259194 -0.025610797 -0.074058734 -0.07526921
-0.061160084 -0.022635035 -0.07491074 0.09392391 -0.08020134 -0.10236884 0.13117296 -0.05627017
-0.043181226 -0.039271127 0.08661343 -0.0010329845 -0.093662076 -0.012655641 -0.024513409 -0.062104996
-0.033587106 0.09785281 0.10909852 0.060660873 -0.13093416 -0.059788976 0.06831263 0.015968306
-0.00254118 -0.110845305 -0.07149568 -0.011084674 -0.055447694 -0.028545 0.09244064 -0.089824714
-0.07898881 0.092549585 0.05867148 0.10815583 -0.053657748 -0.07828979 0.025157208 0.021291126
-0.07631522 0.030493235 0.10039436 0.095883094 0.045329623 0.007276959 -0.11462956 0.01761121
-0.0003550322 -0.11467452 -0.06426783 0.099312745 -0.008301135 0.07801312 0.09301219 -0.023620449
-0.056738228 0.12965386 -0.052118897 -0.058146395 0.111784525 -0.010679883 0.07823536 0.114832304
0.10120465 -0.011832809 0.076195545 0.0825961 -0.049418006 -0.07522017 -0.018134745 0.019658728
-0.072903164 -0.060793094 0.08458926 -0.01566173 0.13700728 0.03633728 0.043277625 -0.01154572
-0.025480397 0.029673664 0.05196494 0.11240096 -0.10509114 0.13223845 -0.068528146 -0.009491939
00000000: 2106 073a 251e dabc 38b4 d0bd ceaa 053e
00000010: 3157 8dbc 31cd d7bc bd17 82bd e312 8bbc
00000020: d451 93bd e63d 0c3d 85a2 f83d 9dd8 cc3d
00000030: 62fc 013d 6dfc fdbd 6ea9 b13d 762f 393c
00000040: 46be 86bd d1eb 77bd b4b8 b43c 4d39 fb3c
00000050: 8717 903d 8c31 edbd 251c 4d3d 13cb 8e3d
00000060: 7ab1 093e 69dc 253d c0a2 aebd 3012 8bbd
00000070: 41be bfbd 6869 b03d de57 e6bd c6a9 ebbd
00000080: 895d 28bd b9b1 c63c 892f 05be d72b 073d
00000090: 9563 d7bd 1708 55bc 44ed cb3c 5503 0c3b
000000a0: 5794 0bbd 1e96 06bc ace0 cabd 08c0 85bd
000000b0: 61d3 f23d d9cc 1c3d 1f3e a03d f32e fa3d
000000c0: 1e83 e73b 36af 63bc ae9d c93c 83e2 6cbd
000000d0: 6495 b53b 3e81 b8bc fe41 02bc b8ae bebd
000000e0: 2154 c3bd 9944 303c 63c4 c5bd 4464 94bd
000000f0: 2a15 0d3d 0729 a93d 5cf8 843d 6818 70bd
00000100: 6f00 de3d 094b 43bd 09a0 813d 1200 babb
00000110: 5a6b a7bd b492 093e 7476 003d ad6a 18be
00000120: 4bc9 ffbb 925b 38bd ae8f ce3d 609b 9f3b
00000130: 80bb fabd abb7 d8bd 80d2 d3bd 13a9 103a
00000140: b049 ef3c b6e9 04bd a3b3 c5bd f40c 56bd
00000150: de34 99bd 338f afbd cf74 d63d e830 01bd
00000160: bc56 d8bd 0c19 f73d b958 a73d 0a8b 97bd
00000170: ee4b 01bd 4063 34bc ada3 2fbd 7ec7 38bd
00000180: bf4a 8aba 2178 ee3c b55e 28bc cf3f ff3d
00000190: 1166 54bc c02d 9e3d 9a73 0a3e ebf0 cdbd
000001a0: 228b 6e3c e236 c63c be65 5cbd be8a e93d
000001b0: 1bac dbbd 5d70 d73d 6c53 843d c9bb db3c
000001c0: a559 fdbd d884 e03d a800 e5bd deeb c43d
000001d0: b0c4 73bd 4eaf fb3d ed95 ca3c b703 05be
000001e0: 3be3 8f3c aba6 013d db42 89bd 6ada 2cbc
000001f0: 59a5 04be a516 b1bd 0aa6 c73d a643 8ebd
00000200: a724 1b3d 200a de3b 66ec 03bd 6e96 253d
00000210: abce 233c e0c8 273b e96b 17bd 368a f5bd
00000220: 3de0 bdbd 3e1f 073e 2646 da3d 662a 0abd
00000230: 2bb9 a23d 499e 8abd 7389 3e3d 4038 903d
00000240: fb6d 92bd 63d0 29bd 9bec 8b3d 80d6 3c3d
00000250: c68c 803d dcaf f0bc c776 eb3d 2fe2 e63d
00000260: c294 bb3d d6aa d53c 8178 8a3d 7e8a d83d
00000270: 731c 173d 7187 713d 83d0 2fbd bd91 aebd
00000280: 9d1d bbbd 004b c93d c8f5 8f3c 0b62 a03c
00000290: 9a96 e6bd bccd d1bc 1bac 97bd be26 9abd
000002a0: ff82 7abd 1c6d b9bc cd6a 99bd 2e5b c03d
000002b0: 9a40 a4bd c1a6 d1bd 3452 063e 8d7b 66bd
000002c0: ccde 30bd c3da 20bd 6262 b13d 3565 87ba
000002d0: e7d1 bfbd 9b59 4fbc 58d0 c8bc cf61 7ebd
000002e0: a292 09bd 0e67 c83d 0b6f df3d 8977 783d
000002f0: 9b13 06be 49e5 74bd 7ee7 8b3d f7cf 823c
00000300: ed89 26bb dd02 e3bd 546c 92bd 7e9c 35bc
00000310: 1f1d 63bd 34d7 e9bc 8551 bd3d 05f6 b7bd
00000320: e3c4 a1bd a38a bd3d 8151 703d ce80 dd3d
00000330: 3ac8 5bbd 6656 a0bd 7d16 ce3c ba6a ae3c
00000340: 274b 9cbd f3cc f93c 8f9b cd3d 5b5e c43d
00000350: 8eab 393d 8e73 ee3b e7c2 eabd 6245 903c
00000360: 9e23 bab9 7ada eabd da9e 83bd 7b64 cb3d
00000370: 7c01 08bc 58c5 9f3d 2d7d be3d ac7f c1bc
00000380: 5866 68bd fbc3 043e a07a 55bd ea2a 6ebd
00000390: 49ef e43d adfa 2ebc dc39 a03d 332d eb3d
000003a0: 6244 cf3d 66de 41bc 690c 9c3d 2528 a93d
000003b0: 896a 4abd 080d 9abd 518f 94bc 570b a13c
000003c0: 414e 95bd 2e02 79bd 223d ad3d 074d 80bc
000003d0: a34b 0c3e 66d6 143d e143 313d 422a 3dbc
000003e0: 44bc d0bc 2f16 f33c 30d9 543d 7932 e63d
000003f0: 063a d7bd 8469 073e 7c58 8cbd 1484 1bbc

lstm.bias_ih_l0 f4 [256]
-0.03555991 -0.06791947 0.10312913 -0.016507367 -0.018233437 0.009299131 0.11765609 -0.0693798
-0.028097222 0.13391122 0.10051751 -0.07942222 0.07634846 0.116450295 0.09564624 0.011309207
0.050158143 0.042269077 -0.11442129 0.08376962 -0.0140903825 0.04428901 0.13744622 0.10648365
0.092296995 -0.020004725 0.09026669 -0.020365946 0.03006166 0.006056033 0.023671199 0.0014117231
0.11473435 0.10092314 -0.07159619 0.009181727 0.0514135 0.023244482 0.112339325 0.09675332
-0.11653663 0.03986004 0.07068866 0.09107842 -0.0332069 -0.11619754 -0.002707325 -0.0017661739
0.0955614 -0.083839126 -0.06945298 0.115274176 0.025737321 -0.092552975 0.015585631 0.028274907
-0.057502944 -0.09775065 -0.08956204 0.1023602 -0.0779408 -0.03303062 0.019470995 -0.013991281
-0.0026022927 0.02283576 -0.0069949534 -0.105614126 0.098600484 -0.044361796 0.019903356 0.07008932
0.040081654 0.119716085 0.018123383 -0.06962317 0.12331866 -0.02431404 -0.09460173 -0.015505747
-0.07756627 0.03685006 0.041693524 -0.0063321935 0.06456553 -0.07301266 0.13760468 0.045071505
-0.033380076 -0.08074073 -0.042355005 0.107232645 -0.075650096 -0.11502212 0.0032916265 0.1164109
-0.115898274 -0.09780176 0.044679753 0.06905922 -0.02254548 0.063702635 0.07606385 -0.1145982
0.041181017 0.10524308 0.022166094 0.08305667 -0.06674518 0.091076404 0.005161396 -0.060987025
0.0908019 0.09088802 0.12193368 0.068637155 0.0010748256 0.05064283 -0.0056163683 -0.005738998
-0.12169313 0.11691757 0.026587954 -0.044823658 0.08687075 -0.035551034 0.042215012 0.035943933
-0.070845716 0.050125998 0.09308706 0.06842859 0.05212702 -0.101080485 -0.10477125 0.10154909
0.050769623 -0.123530865 -0.1137096 -0.05170929 -0.0108042285 0.03621953 0.087723546 0.01430365
0.06036611 0.071577825 0.01879754 -0.043979637 0.052210256 -0.028024154 0.10572117 -0.10154015
0.022769054 0.017068874 -0.0053558853 -0.048065826 0.09129312 -0.02170434 -0.019687383 0.013855651
-0.030142313 0.058989342 -0.038404264 -0.10521721 0.060928848 0.07552771 0.036027018 -0.108113565
0.060317054 0.09042973 0.006448931 0.08111218 -0.08117471 0.001776099 -0.1148854 -0.098410055
0.08976814 -0.09776288 -0.087262504 0.103426896 -0.10937006 -0.071894266 0.017409852 0.1102861
0.0045430707 0.00036228844 0.107465506 -0.026273506 -0.10930704 -0.03207298 -0.10452114 0.088265605
0.0034443513 0.06352519 -0.014303355 -0.10900459 0.052242115 0.100703545 0.060002416 0.06431401
0.106159166 0.103358455 0.09828631 -0.10873917 0.10848163 -0.07222294 -0.09160566 0.085426435
0.07075157 -0.022790408 -0.110783674 0.09880317 -0.080771744 -0.056389257 0.0636954 -0.056273766
-0.031753 -0.081117 -0.0039090416 -0.108508185 0.08453948 0.094901845 -0.0041571585 -0.021271337
0.117245525 0.023023846 -0.064422496 -0.058813427 -0.114401594 -0.089317985 0.11643265 -0.010418318
-0.023794046 -0.1052724 0.008049933 0.029800605 0.002345846 -0.10965651 0.022953074 -0.053804
0.08048641 -0.05001435 0.11577778 -0.044649843 0.09092225 -0.0779306 -0.06345729 0.073332384
-0.09659113 0.05009005 -0.06605876 0.04292168 -0.07156544 -0.04321044 -0.1152102 -0.031490758
00000000: 45a7 11bd 5d19 8bbd 5e35 d33d 753a 87bc
00000010: 4a5e 95bc 625b 183c adf5 f03d ff16 8ebd
00000020: 252c e6bc 0620 093e 20dc cd3d 1ea8 a2bd
00000030: 955c 9c3d 7e7d ee3d 2de2 c33d 414a 393c
00000040: a072 4d3d 5722 2d3d b655 eabd 688f ab3d
00000050: 59db 66bc 6568 353d b4be 0c3e 1a14 da3d
00000060: 3506 bd3d f3e0 a3bc bedd b83d 7cd6 a6bc
00000070: df43 f63c b071 c63b 1aea c13c 9109 b93a
00000080: d8f9 ea3d cbb0 ce3d 06a1 92bd f46e 163c
00000090: f696 523d 366b be3c 2912 e63d 9b26 c63d
000000a0: c2aa eebd 4844 233d 37c5 903d 5387 ba3d
000000b0: f503 08bd faf8 edbd 606d 31bb f67e e7ba
000000c0: b2b5 c33d d9b3 abbd 5d3d 8ebd de14 ec3d
000000d0: 13d7 d23c 6a8c bdbd e05a 7f3c c7a0 e73c
000000e0: 3588 6bbd 7e31 c8bd 4e6c b7bd 39a2 d13d
000000f0: 6d9f 9fbd 1e4b 07bd a381 9f3c b03b 65bc
00000100: 3a8b 2abb 0f12 bb3c ec35 e5bb 384c d8bd
00000110: 0def c93d b7b4 35bd 5d0c a33c fd8a 8f3d
00000120: a92c 243d b52d f53d 7d77 943c 9896 8ebd
00000130: 7e8e fc3d 3d2e c7bc 8dbe c1bd d10b 7ebc
00000140: 11db 9ebd 17f0 163d d4c6 2a3d 4a7e cfbb
00000150: ef3a 843d a987 95bd 3ee8 0c3e e69c 383d
00000160: 8cb9 08bd 655b a5bd 717c 2dbd ca9c db3d
00000170: 70ee 9abd b890 ebbd 54b8 573b d768 ee3d
00000180: 135c edbd 4a4c c8bd 1e02 373d ec6e 8d3d
00000190: 4cb1 b8bc 8776 823d 5dc7 9b3d 76b2 eabd
000001a0: 6dad 283d af89 d73d ab95 b53c 9e19 aa3d
000001b0: b2b1 88bd 4486 ba3d ee20 a93b 88cd 79bd
000001c0: 59f6 b93d 8023 ba3d 5db8 f93d a391 8c3d
000001d0: 2ae1 8c3a db6e 4f3d 8309 b8bb 340e bcbb
000001e0: 3f3a f9bd 7b72 ef3d fbce d93c 0399 37bd
000001f0: 4be9 b13d f69d 11bd a6e9 2c3d f239 133d
00000200: 8f17 91bd eb50 4d3d 6ea4 be3d 4a24 8c3d
00000210: 2483 553d 4903 cfbd 4f92 d6bd f8f8 cf3d
00000220: cff3 4f3d c0fd fcbd 94e0 e8bd 1fcd 53bd
00000230: 3804 31bc ee5a 143d 67a8 b33d db59 6a3c
00000240: 7442 773d 6597 923d 4cfd 993c fe23 34bd
00000250: 6cda 553d e992 e5bc 5784 d83d 48f4 cfbd
00000260: 2b86 ba3c 06d4 8b3c 6c80 afbb ace0 44bd
00000270: e3f7 ba3d 4dcd b1bc 6f47 a1bc d002 633c
00000280: 03ed f6bc cf9e 713d ca4d 1dbd 1f7c d7bd
00000290: 8790 793d 46ae 9a3d 1191 133d a56a ddbd
000002a0: 040f 773d 3933 b93d 8e51 d33b 251e a63d
000002b0: ed3e a6bd fecb e83a 0949 ebbd 368b c9bd
000002c0: 5cd8 b73d e837 c8bd afb6 b2bd 7bd1 d33d
000002d0: 69fd dfbd 4d3d 93bd 1b9f 8e3c aedd e13d
000002e0: 0ade 943b 88f1 bd39 e016 dc3d 893b d7bc
000002f0: 5fdc dfbd f55e 03bd 2e0f d6bd 99c4 b43d
00000300: a0ba 613b 7f19 823d 9e58 6abc cc3d dfbd
00000310: d4fb 553d a93d ce3d 18c5 753d 10b7 833d
00000320: fa69 d93d 99ad d33d 554a c93d a4b2 debd
00000330: 9e2b de3d 9fe9 93bd c09b bbbd 0ef4 ae3d
00000340: 33e6 903d f3b2 babc 8de2 e2bd 5159 ca3d
00000350: a86b a5bd 6cf8 66bd bc72 823d 527f 66bd
00000360: 6f0f 02bd ab20 a6bd 6b17 80bb 8a39 debd
00000370: 0923 ad3d e65b c23d c638 88bb 3a41 aebc
00000380: 6c1e f03d 819c bc3c f1ef 83bd 59e6 70bd
00000390: 624b eabd 59ec b6bd 3e74 ee3d 98b1 2abc
000003a0: bbeb c2bc 0e99 d7bd dee3 033c 6620 f43c
000003b0: c4bc 193b 9893 e0bd 1608 bc3c 9561 5cbd
000003c0: 0fd6 a43d d9db 4cbd e71c ed3d c1e2 36bd
000003d0: 7235 ba3d 149a 9fbd e5f5 81bd 4a2f 963d
000003e0: 92d1 c5bd 392b 4d3d d149 87bd a5ce 2f3d
000003f0: e790 92bd 6efd 30bd 53f3 ebbd 74fc 00bd

lstm.bias_hh_l0 f4 [256]
0.0018149231 -0.079469405 -0.033822 0.06728791 -0.05873566 0.08043215 -0.104515634 -0.07272225
0.023560854 0.054091446 -0.06195388 -0.13495024 -0.07756611 0.117710665 0.0870179 0.064659104
-0.03373223 -0.08751322 0.016973307 0.080309704 -0.033231277 -0.020466467 0.0937193 -0.13601498
-0.043522224 0.06684948 -0.09173234 -0.040291272 0.06682968 0.031040465 0.010830986 0.019665316
-0.05662692 -0.14321959 -0.0069333473 -0.08958163 -0.12372938 0.11423844 -0.11618578 -0.033094604
-0.07018447 0.12171945 0.05478613 0.023599122 0.07462511 0.059402067 -0.06347851 0.04570459
-0.08202243 -0.14151786 0.020422291 0.02662767 0.006895127 0.09145236 -0.12678835 -0.09071692
0.034953114 0.061071105 0.0023753487 0.032179218 -0.10812924 -0.10513807 0.11053838 0.0019690515
-0.035216942 0.03817734 0.021227857 0.08094221 0.06607156 0.028830135 0.071567 -0.0072249505
0.11271054 0.07244385 0.1030566 0.02004402 0.058690846 -0.08330524 -0.025793497 0.025830371
-0.078231476 0.10545099 0.10966247 0.09756467 -0.078564756 -0.08520383 -0.09248738 -0.08128203
-0.10808291 -0.026786996 0.00694419 0.024884082 0.118448794 -0.0040118233 -0.11219487 -0.056856476
-0.05927341 0.023899425 -0.03745965 0.10712698 -0.09538268 0.09043443 -0.022568287 -0.090275824
0.029862216 -0.09040346 0.072293535 -0.052398425 -0.062430806 -0.032535497 -0.06578255 0.11818989
0.035510693 0.019470027 0.05637948 -0.1187182 0.004253287 -0.0545411 -0.06398793 -0.048362844
-0.09962746 -0.06889502 -0.021425107 0.019126298 -0.05080656 0.001455099 0.090727195 0.10954552
0.043402385 0.085607015 -0.05352275 0.017369043 -0.03330492 -0.06264847 -0.040494062 0.07028225
0.07964382 -0.10727531 -0.088807374 -0.033319097 0.09804222 0.13436149 0.007969376 0.10974608
-0.007702342 0.104700126 0.020753615 -0.09699976 -0.027266242 0.03285309 0.08513845 0.09846842
-0.008952279 0.057940453 0.08520094 0.11241625 -0.05651981 0.11048644 0.12442792 0.10453963
0.028129188 -0.07606301 0.02896894 -0.029690856 0.11263006 -0.0721257 -0.012898762 -0.055540293
0.02689711 0.07485331 0.11331289 -0.050516386 0.020013778 -0.06487196 -0.016061492 0.10563105
0.090213746 0.04872793 -0.032754835 -0.0072044726 0.08824507 0.082199305 -0.046616394 -0.065239295
-0.018529378 -0.13159996 0.08384813 0.042960826 0.0997185 0.060875114 -0.053127527 0.010141409
0.024897076 0.019448519 -0.10405076 -0.0956559 0.07931116 -0.068184204 0.02751076 -0.0018772589
-0.034490343 0.13485554 -0.03972215 -0.0003100869 -0.10714002 0.07382717 0.00076271297 0.0813016
-0.04814512 -0.046262287 0.053221736 -0.06771732 -0.034300197 0.09460753 -0.025048772 -0.05569964
-0.04248407 0.1093817 -0.080294676 0.10209608 -0.014502513 -0.1152862 0.10267902 -0.047724884
0.045535803 0.06945637 0.08406831 -0.11304592 0.013234912 0.016750881 -0.002419498 0.0638437
-0.1174935 0.009974538 0.021900406 -0.08676176 0.09987974 -0.06407425 0.024241602 0.07867404
0.10199977 0.085389204 0.008402563 0.089615755 -0.0563445 -0.016830986 0.07207643 0.107604995
-0.0023682164 -0.11222801 -0.018723946 0.02910082 0.12412033 0.09615311 0.037355807 -0.10060878
00000000: b7e2 ed3a dbc0 a2bd f088 0abd 3ece 893d
00000010: ce94 70bd 9cb9 a43d 4b0c d6bd 67ef 94bd
00000020: b102 c13c fe8e 5d3d 5ac3 7dbd 6530 0abe
00000030: fbda 9ebd 4a12 f13d 7136 b23d fe6b 843d
00000040: cf2a 0abd 223a b3bd 9b0b 8b3c 6a79 a43d
00000050: 851d 08bd 4ba9 a7bc e8ef bf3d 8347 0bbe
00000060: 5c44 32bd 61e8 883d 2ade bbbd 7608 25bd
00000070: 00de 883d 9348 fe3c 7374 313c 2819 a13c
00000080: a1f1 67bd 28a8 12be 2231 e3bb 9376 b7bd
00000090: d465 fdbd d8f5 e93d cff2 edbd 358e 07bd
000000a0: e0bc 8fbd 0c48 f93d 6c67 603d f252 c13c
000000b0: 0dd5 983d 954f 733d 0501 82bd bc34 3b3d
000000c0: 60fb a7bd 0fea 10be a64c a73c 4522 da3c
000000d0: 84f0 e13b 604b bb3d ced4 01be cbc9 b9bd
000000e0: ff2a 0f3d b225 7a3d bdab 1b3b 5bce 033d
000000f0: dd72 ddbd a152 d7bd f261 e23d 340b 013b
00000100: a43f 10bd d85f 1c3d 0be6 ad3c 08c5 a53d
00000110: 8750 873d 2d2d ec3c b891 923d 47bf ecbb
00000120: c9d4 e63d 715d 943d 570f d33d 5b33 a43c
00000130: d065 703d f09b aabd e24c d3bc 379a d33c
00000140: d337 a0bd b0f6 d73d b896 e03d fccf c73d
00000150: 8fe6 a0bd 587f aebd 066a bdbd 3177 a6bd
00000160: 935a ddbd 6770 dbbc 168c e33b b4d9 cb3c
00000170: 4895 f23d 9d75 83bb 6dc6 e5bd 56e2 68bd
00000180: adc8 72bd bac8 c33c 4a6f 19bd 6465 db3d
00000190: ff57 c3bd b035 b93d 21e1 b8bc 88e2 b8bd
000001a0: 9ba1 f43c 7325 b9bd a20e 943d bb9f 56bd
000001b0: 72b7 7fbd f143 05bd 00b9 86bd 8b0d f23d
000001c0: a973 113d 9b7f 9f3c 2bee 663d 8722 f3bd
000001d0: 285f 8b3b 7d66 5fbd 1b0c 83bd 1e18 46bd
000001e0: 7b09 ccbd d518 8dbd b583 afbc c1ae 9c3c
000001f0: 8a1a 50bd 05b9 be3a 2ecf b93d 6759 e03d
00000200: b3c6 313d bb52 af3d ac3a 5bbd 8649 8e3c
00000210: bd6a 08bd d74d 80bd 1add 25bd 24f0 8f3d
00000220: 4d1c a33d 28b3 dbbd a4e0 b5bd 9b79 08bd
00000230: 5cca c83d 0f96 093e fc91 023c 8ec2 e03d
00000240: ed63 fcbb 056d d63d 7c03 aa3c cfa7 c6bd
00000250: 745d dfbc f690 063d 115d ae3d d0a9 c93d
00000260: 94ac 12bc f852 6d3d d57d ae3d 7e3a e63d
00000270: 5181 67bd b746 e23d 11d4 fe3d e018 d63d
00000280: 2f6f e63c ecc6 9bbd 4550 ed3c 3d3a f3bc
00000290: 97aa e63d a4b6 93bd 5455 53bc 387e 63bd
000002a0: 5457 dc3c b14c 993d 9710 e83d 45ea 4ebd
000002b0: eff3 a33c 97db 84bd 6493 83bc 1855 d83d
000002c0: fcc1 b83d f096 473d ef29 06bd 7f13 ecbb
000002d0: d5b9 b43d 1c58 a83d d5f0 3ebd 2e9c 85bd
000002e0: ecca 97bc 24c2 06be 92b8 ab3d b1f7 2f3d
000002f0: 3739 cc3d 2f58 793d 409c 59bd 2728 263c
00000300: f4f4 cb3c 8052 9f3c 9118 d5bd 3ee7 c3bd
00000310: e46d a23d 29a4 8bbd 3f5e e13c 5b0e f6ba
00000320: bf45 0dbd 9217 0a3e b1b3 22bd 2993 a2b9
00000330: 3a6c dbbd b332 973d cdf0 473a 7481 a63d
00000340: d133 45bd 867d 3dbd 09ff 593d 61af 8abd
00000350: 5d7e 0cbd 98c1 c13d 1533 cdbc 4e25 64bd
00000360: c703 2ebd 8303 e03d 8971 a4bd c017 d13d
00000370: f39b 6dbc 2c1b ecbd 6149 d23d 2b7b 43bd
00000380: c083 3a3d 243f 8e3d 022c ac3d 9f84 e7bd
00000390: 3fd7 583c 2539 893c 7190 1ebb 7cc0 823d
000003a0: 6fa0 f0bd 3f6c 233c 7b68 b33c 26b0 b1bd
000003b0: c08d cc3d 5c39 83bd 5396 c63c db1f a13d
000003c0: 41e5 d03d 89e0 ae3d e7aa 093c 7788 b73d
000003d0: 7ec9 66bd 23e1 89bc cf9c 933d 0260 dc3d
000003e0: 1434 1bbb cdd7 e5bd f662 99bc d864 ee3c
000003f0: cd32 fe3d eceb c43d 6702 193d fa0b cebd

lstm.weight_ih_l1 f4 [256, 64]
-0.13239747 0.09030111 -0.04152592 0.07023336 0.051548537 -0.11277222 -0.0045784786 0.028039724
-0.08260466 0.012552787 0.0076362104 -0.040799122 0.034637608 0.053553376 -0.08591763 -0.06962223
-0.008403364 -0.07112937 0.036676943 0.09504498 0.046649076 -0.034929726 -0.0471576 0.035719637
0.05223997 -0.085908614 -0.043696947 0.01573869 -0.06305952 0.090355 0.12413771 -0.10358788
0.09377753 -0.010585807 -0.06629498 -0.063790366 -0.095355205 -0.054394417 -0.08018767 -0.042001717
-0.010272409 0.06369743 -0.1179178 0.036190033 -0.12924343 -0.008403972 0.09087825 0.115212455
-0.11234307 0.0466976 -0.044519924 0.012302587 -0.05367473 -0.11013225 0.00868654 -0.10296196
-0.09786857 -0.050383333 -0.07334834 -0.01508675 -0.104992434 0.12489784 -0.062936254 0.041320197
-0.042415958 -0.10508118 -0.07058327 -0.04973652 -0.058959465 -0.03777996 -0.047791414 -0.095649034
-0.023256663 -0.12722397 -0.028021356 0.1474562 -0.08661236 -0.020101385 -0.08488925 0.030105967
-0.083481446 -0.07838911 0.1172172 -0.0053560548 0.06429364 0.09392912 -0.11213527 -0.09873266
-0.0029915557 -0.076640606 0.11967683 -0.022113929 0.085737035 -0.00076629675 -0.046325076 0.09881667
-0.076053396 -0.08271544 -0.123470016 -0.03103867 0.021390691 -0.04010092 -0.027515704 -0.13651808
0.105839185 0.07274542 -0.011376703 0.07110724 0.09609978 0.009558738 0.057824746 -0.08366855
-0.079493955 -0.08363208 -0.02270452 0.09413904 -0.050313573 -0.0026434376 0.035424996 0.04720921
-0.040577006 0.034250703 -0.05328404 -0.04293454 0.098196484 0.060764816 -0.12371421 0.028360158
-0.048780296 0.09486752 0.06427674 0.12597542 0.009732383 0.00056528114 0.11132162 -0.08698175
-0.122056514 -0.070099615 0.07831988 -0.005791668 -0.07535281 -0.02439821 0.037889127 0.031796638
0.05184241 -0.100081496 -0.009472769 -0.11493546 0.06982689 -0.031707518 0.039554723 -0.026677124
-0.0700505 0.03490767 0.028229691 -0.10683734 -0.0889572 0.036928214 0.067408346 0.10958862
-0.0076735932 -0.11375166 0.078321844 -0.04662065 -0.12857468 -0.0137056485 0.121806584 0.012252038
-0.1032381 -0.04779033 0.10172377 -0.110831335 -0.010397923 0.14166741 0.05177804 0.045866944
0.057003874 0.039152216 -0.012875327 -0.05859425 0.09845025 -0.00527727 -0.05177481 0.06803524
-0.06206773 -0.028563099 -0.063842185 0.02039275 -0.05676844 0.029173587 0.028610995 -0.09270298
-0.03898481 0.022346701 0.066385336 0.043443404 0.078111954 -0.014731548 -0.016895752 0.053394582
0.048104677 0.09152105 0.092624314 -0.051659387 -0.00040541062 -0.047759805 -0.023529494 0.063553296
-0.05191013 0.044109628 0.09002834 0.050127864 0.017008143 0.044318117 0.09955139 0.03614302
0.051449694 -0.12385516 -0.13434456 -0.026334928 0.036387607 -0.016838074 -0.06361259 -0.053515136
0.08830958 -0.10075231 -0.037669986 0.010198387 -0.011950687 0.084274165 0.019730862 -0.07794565
-0.13538319 0.0029403954 0.0793135 0.052509226 0.02992552 -0.09002328 0.11884756 0.08395218
-0.028235447 0.10242604 -0.019627128 0.003082856 0.10066879 0.09561111 0.008745716 0.08836045
0.028674508 0.027244097 -0.13383697 -0.07380141 -0.087495066 -0.115052894 -0.003060139 0.041212678
00000000: 3493 07be caef b83d 1517 2abd 82d6 8f3d
00000010: 8f24 533d 1ff5 e6bd 1007 96bb 90b3 e53c
00000020: a22c a9bd 34aa 4d3c 2d39 fa3b fb1c 27bd
00000030: 2ae0 0d3d c95a 5b3d 95f5 afbd 1a96 8ebd
00000040: 43ae 09bc 46ac 91bd 903a 163d f1a6 c23d
00000050: 1a13 3f3d 7912 0fbd 5428 41bd c14e 123d
00000060: 94f9 553d dbf0 afbd 92fb 32bd 6dee 803c
00000070: 5a25 81bd 0b0c b93d e93b fe3d e225 d4bd
00000080: 6f0e c03d 1870 2dbc aac5 87bd 86a4 82bd
00000090: 9749 c3bd aecc 5ebd 6f39 a4bd fe09 2cbd
000000a0: 9b4d 28bc cc73 823d e37e f1bd 003c 143d
000000b0: 6458 04be d0b0 09bc 601e ba3d 82f4 eb3d
000000c0: 2014 e6bd fc45 3f3d 865a 36bd ca90 493c
000000d0: 09da 5bbd 048d e1bd fd51 0e3c b8dd d2bd
000000e0: 516f c8bd c15e 4ebd a837 96bd 6a2e 77bc
000000f0: 4606 d7bd 70ca ff3d b9e4 80bd 5e3f 293d
00000100: 5bbc 2dbd cd34 d7bd f68d 90bd 85b8 4bbd
00000110: 7b7f 71bd 29bf 1abd eec0 43bd a4e3 c3bd
00000120: c284 bebc 0047 02be 0b8d e5bc c2fe 163e
00000130: d261 b1bd a9ab a4bc 6ada adbd caa0 f63c
00000140: 52f8 aabd 788a a0bd 920f f03d d881 afbb
00000150: 62ac 833d e95d c03d 2da7 e5bd 5934 cabd
00000160: fa0d 44bb c0f5 9cbd 2019 f53d 4528 b5bc
00000170: e696 af3d 4ee1 48ba 5dbf 3dbd 6560 ca3d
00000180: e2c1 9bbd b666 a9bd d9dd fcbd cf44 febc
00000190: 883b af3c dd40 24bd 9d68 e1bc 65cb 0bbe
000001a0: 37c2 d83d 8dfb 943d 5a65 3abc aca0 913d
000001b0: f6cf c43d 419c 1c3c a4d9 6c3d 6b5a abbd
000001c0: bacd a2bd 4c47 abbd d4fe b9bc f8cb c03d
000001d0: 9b15 4ebd 863d 2dbb cd19 113d 725e 413d
000001e0: 1334 26bd 774a 0c3d 5e40 5abd 21dc 2fbd
000001f0: 3d1b c93d 87e4 783d e05d fdbd 9053 e83c
00000200: d9cd 47bd e749 c23d 86a3 833d b3ff 003e
00000210: 9374 1f3c 602f 143a 97fc e33d 7d23 b2bd
00000220: c4f8 f9bd 6390 8fbd 2c66 a03d 08c8 bdbb
00000230: 9352 9abd c1de c7bc a131 1b3d 313d 023d
00000240: b558 543d 87f7 ccbd ac33 1bbc 4863 ebbd
00000250: 6701 8f3d bedf 01bd 2204 223d fc89 dabc
00000260: a376 8fbd 58fb 0e3d f441 e73c 89cd dabd
00000270: 312f b6bd 0a42 173d 630d 8a3d 0070 e03d
00000280: c472 fbbb a1f6 e8bd 3467 a03d 4bf5 3ebd
00000290: 15a9 03be a88d 60bc bb75 f93d c6bc 483c
000002a0: 7f6e d3bd cbbf 43bd 8d54 d03d 8afb e2bd
000002b0: 0d5c 2abc 4311 113e 3615 543d fade 3b3d
000002c0: e57c 693d 135e 203d 09f3 52bc 8600 70bd
000002d0: 49a0 c93d f3ec acbb d311 54bd 0f56 8b3d
000002e0: bb3a 7ebd 29fd e9bc b1bf 82bd b20e a73c
000002f0: 0686 68bd 72fd ee3c 9b61 ea3c 0fdb bdbd
00000300: 89ae 1fbd 6e10 b73c 09f5 873d b6f1 313d
00000310: 29f9 9f3d 975c 71bc f668 8abc 47b4 5a3d
00000320: 6909 453d 636f bb3d d1b1 bd3d cb98 53bd
00000330: 4b8d d4b9 c99f 43bd edc0 c0bc 3b28 823d
00000340: b79f 54bd 4cac 343d c760 b83d e052 4d3d
00000350: a954 8b3c ea86 353d 99e1 cb3d b40a 143d
00000360: eabc 523d c6a7 fdbd 9f91 09be 59bc d7bc
00000370: 2c0b 153d 00f0 89bc 5147 82bd b032 5bbd
00000380: a7db b43d 3a57 cebd d84b 1abd 2317 273c
00000390: d0cc 43bc ef97 ac3d 9ea2 a13c f8a1 9fbd
000003a0: e4a1 0abe a6b3 403b 1e6f a23d ea13 573d
000003b0: 5d26 f53c 205e b8bd 5966 f33d 1fef ab3d
000003c0: 064e e7bc bec4 d13d 12c9 a0bc be09 4a3b
000003d0: 702b ce3d c2cf c33d 314a 0f3c 53f6 b43d
000003e0: cde6 ea3c 032f df3c 8f0c 09be 3225 97bd
000003f0: 9d30 b3bd daa0 ebbd 9d8c 48bb a0ce 283d

lstm.weight_hh_l1 f4 [256, 64]
0.10147264 0.059752394 0.084289335 -0.013694351 0.044520807 -0.08231526 0.057646826 0.0034245036
-0.126202 -0.05381884 0.024764637 -0.010352971 -0.04355961 -0.08332839 0.062955126 -0.06728005
0.053777885 0.02982085 -0.03263178 -0.11485922 -0.074535444 0.060149405 -0.03404463 0.13702583
0.014327738 -0.038664985 -0.010291427 0.057450444 -0.11472387 0.038382407 0.11208325 0.013641483
-0.054322127 0.11083621 0.060738947 0.087577775 0.07702879 0.01302233 0.031699967 0.018058501
0.09167712 -0.09620602 0.038034935 0.07885619 0.100207195 0.11979826 -0.083568044 0.054072708
-0.067892335 0.034636453 -0.028572747 -0.07455383 0.065025456 0.10341573 -0.074197516 -0.008777186
-0.012587555 0.0043500727 -0.047755092 0.06704043 -0.025615305 -0.06359987 0.018616201 0.025134856
-0.05602446 -0.007175347 -0.053903125 -0.12187849 -0.07102855 -0.09894943 -0.003281188 -0.1046426
0.081275165 -0.0060424265 -0.029009018 -0.018360283 0.08581214 -0.07779828 0.13965335 -0.15367277
0.021242654 -0.08470364 0.060389843 -0.10515653 0.021172717 -0.054217592 -0.091554694 -0.097592704
0.119171165 0.032187533 0.02213125 -0.039895188 -0.15695076 -0.036798675 -0.0024087355 0.03573361
-0.09310839 -0.11101909 -0.028328856 -0.055539288 -0.15335298 0.12899652 -0.11268082 -0.08486231
-0.039939214 -0.07145876 0.05916353 -0.09902359 0.13995408 -0.1384444 0.04181974 -0.0101034725
0.03908853 0.012453321 0.10533056 -0.10568939 -0.031825174 0.05064223 -0.05157218 0.0422675
-0.018907938 0.035770558 -0.019122211 0.06392312 0.017642375 -0.027635695 0.06247707 -0.014210153
-0.041903127 0.019362908 0.12125329 0.027428295 0.1384836 -0.008372159 -0.021133272 -0.09239496
0.124536626 0.10320728 0.10907491 0.11504639 -0.07629202 0.061665807 0.046281394 0.0796463
-0.06012727 -0.055348147 0.06575732 -0.05242446 -0.076095425 -0.12769979 -0.065095864 0.009317407
-0.012981736 -0.065064356 0.030451275 0.09945647 -0.09837337 0.066216454 -0.0652087 0.08400465
0.0035710759 -0.02322353 -0.06345779 0.08090299 -0.073600456 -0.08469661 0.08398752 0.14013144
0.08341357 -0.03954069 0.021142375 -0.039155826 0.08488001 0.006604906 -0.04398946 -0.0993499
0.040438663 -0.08986304 -0.05909572 -0.09147381 0.0572112 -0.025507748 -0.11542439 0.043494843
-0.018238122 -0.037420873 0.054104183 -0.09601486 0.10581946 -0.08666615 0.030514032 0.110845946
0.071995124 0.07737131 -0.023377245 0.07356223 -0.03575925 0.0401928 0.10965439 -0.011112876
0.08845186 0.07791589 -0.056766476 0.014314494 0.09913189 0.11372273 0.027560003 0.09480574
-0.05973465 0.1393257 0.08833459 0.099520236 0.14034702 0.068162255 -0.0831027 0.062277697
0.045507446 0.0082355905 0.06285526 -0.12854078 0.09140272 0.066592984 0.038243733 0.119374886
-0.07882166 -0.103806175 -0.051894583 0.02564558 -0.017897973 0.029800989 0.08512588 -0.018413141
-0.09365483 -0.037828818 0.0819755 -0.008964723 -0.01035874 -0.0101328865 0.053112555 -0.02640769
-0.054664616 -0.011333126 0.039247558 0.09325676 -0.060223956 0.032101255 -0.011644109 0.0580706
-0.07508991 -0.014992779 0.02125048 -0.052728493 -0.02249667 -0.03139803 -0.07491835 -0.087881014
00000000: e3d0 cf3d edbe 743d e39f ac3d 455e 60bc
00000010: 735b 363d e794 a8bd 141f 6c3d a36d 603b
00000020: 193b 01be 2571 5cbd 35df ca3c 829f 29bc
00000030: 906b 32bd 13a8 aabd 9eee 803d 1fca 89bd
00000040: 3346 5c3d db4a f43c e7a8 05bd 503b ebbd
00000050: 0aa6 98bd 395f 763d 6272 0bbd 8050 0c3e
00000060: e4be 6a3c 2d5f 1ebd 609d 28bc 2851 6b3d
00000070: 59f4 eabd df36 1d3d e78b e53d 8780 5f3c
00000080: e180 5ebd 18fe e23d 67c9 783d fa5b b33d
00000090: 45c1 9d3d 9c5b 553c d3d7 013d 6cef 933c
000000a0: 37c1 bb3d a907 c5bd 85ca 1b3d 5b7f a13d
000000b0: 6e39 cd3d ca58 f53d b925 abbd 587b 5d3d
000000c0: 230b 8bbd f4de 0d3d 6511 eabc aeaf 98bd
000000d0: 112c 853d a0cb d33d def4 97bd 30ce 0fbc
000000e0: 083c 4ebc 0e8b 8e3b d89a 43bd 7e4c 893d
000000f0: 30d7 d1bc a640 82bd 0181 983c 9de7 cd3c
00000100: e779 65bd 2c1f ebbb 86c9 5cbd 6e9b f9bd
00000110: 6b77 91bd 00a6 cabd 3309 57bb dc4e d6bd
00000120: 9873 a63d 8cff c5bb 52a4 edbc 4e68 96bc
00000130: 46be af3d b454 9fbd 4a01 0f3e 655c 1dbe
00000140: 1305 ae3c 1a79 adbd 575b 773d 4f5c d7bd
00000150: 6872 ad3c 4413 5ebd 0781 bbbd afde c7bd
00000160: 0310 f43d 13d7 033d 984c b53c 2369 23bd
00000170: b3b7 20be 35ba 16bd e0db 1dbb 685d 123d
00000180: 9daf bebd fa5d e3bd eb11 e8bc 2a7d 63bd
00000190: 9008 1dbe aa17 043e 34c5 e6bd 4acc adbd
000001a0: 4d97 23bd f858 92bd 7555 723d e1cc cabd
000001b0: 1f50 0f3e 5ec4 0dbe 2d4b 2b3d 0989 25bc
000001c0: 4b1b 203d 0409 4c3c 8cb7 d73d ae73 d8bd
000001d0: 1d5b 02bd 3a6e 4f3d 5a3d 53bd b020 2d3d
000001e0: d2e4 9abc 2684 123d 2fa6 9cbc 20ea 823d
000001f0: be86 903c 4164 e2bc f5e7 7f3d b4d1 68bc
00000200: 9da2 2bbd f69e 9e3c a553 f83d 4eb1 e03c
00000210: a5ce 0d3e 612b 09bc af1f adbc 9239 bdbd
00000220: 0f0d ff3d 575e d33d ab62 df3d 719d eb3d
00000230: fe3e 9cbd 4995 7c3d 8f91 3d3d 991d a33d
00000240: 0348 76bd bdb4 62bd c6ab 863d 08bb 56bd
00000250: ebd7 9bbd bcc3 02be fb50 85bd 0aa8 183c
00000260: 59b1 54bc 7640 85bd f474 f93c d5af cb3d
00000270: fa77 c9bd 7e9c 873d 248c 85bd a10a ac3d
00000280: b608 6a3b 463f bebc 28f6 81bd 78b0 a53d
00000290: d6bb 96bd 6b75 adbd a601 ac3d 9e7e 0f3e
000002a0: bcd4 aa3d 6bf5 21bd c632 ad3c dc61 20bd
000002b0: 92d5 ad3d f86d d83b 4b2e 34bd f677 cbbd
000002c0: 03a3 253d 1d0a b8bd 5b0e 72bd 9f56 bbbd
000002d0: 4b56 6a3d a0f5 d0bc 9f63 ecbd a627 323d
000002e0: 1d68 95bc a146 19bd 599c 5d3d 70a3 c4bd
000002f0: dfb7 d83d 067e b1bd 90f8 f93c 3303 e33d
00000300: 2e72 933d d974 9e3d a381 bfbc cba7 963d
00000310: 4b78 12bd 35a1 243d 7b92 e03d c812 36bc
00000320: 4026 b53d 5e92 9f3d f783 68bd 5787 6a3c
00000330: a905 cb3d 76e7 e83d 84c5 e13c 8329 c23d
00000340: 52ac 74bd 65ab 0e3e c4e8 b43d 44d1 cb3d
00000350: 21b7 0f3e a798 8b3d c031 aabd e616 7f3d
00000360: 0466 3a3d 92ee 063c 42ba 803d 32a0 03be
00000370: 5931 bb3d e761 883d 76a5 1c3d d27a f43d
00000380: 406d a1bd 5598 d4bd 6a8f 54bd ae16 d23c
00000390: c59e 92bc 3421 f43c 7a56 ae3d 28d7 96bc
000003a0: 1ace bfbd 64f2 1abd c5e2 a73d c6e0 12bc
000003b0: b4b7 29bc 6804 26bc 8d8c 593d f154 d8bc
000003c0: 01e8 5fbd 93ae 39bc 0cc2 203d 66fd be3d
000003d0: 65ad 76bd 9b7c 033d efc6 3ebc 70db 6d3d
000003e0: bdc8 99bd 46a4 75bc 7d15 ae3c d5f9 57bd
000003f0: f04a b8bc 399b 00bd cb6e 99bd f6fa b3bd

lstm.bias_ih_l1 f4 [256]
-0.07992263 0.08684316 -0.022557452 -0.08375921 -0.018003004 -0.09166296 0.057249896 0.0030491867
-0.02866312 0.02052154 0.015965305 0.017584274 0.07040837 -0.00047189684 0.12140457 -0.06810297
-0.07537701 0.018928425 -0.07923857 -0.070161745 -0.06923142 0.07150931 -0.054920718 0.06608142
-0.1080831 0.06741445 0.009672068 -0.034769643 0.015154196 0.08469883 -0.00362028 -0.042013552
0.014216501 -0.1243559 0.044128448 0.072565496 0.075578496 0.120831445 -0.013463824 0.040044285
-0.032080695 0.119353935 0.05526911 -0.016213946 -0.06620904 -0.0390479 -0.024157517 -0.085097186
0.07948986 0.003681228 -0.05564715 0.0831787 0.039751988 -0.029610317 0.100010544 0.042233143
-0.10782474 -0.100164995 0.0035805975 0.04215765 -0.12397555 -0.06729249 0.033754643 0.017463712
-0.0981254 0.100871176 -0.056000266 0.057155453 -0.03324144 -0.029930402 0.012207595 -0.08662927
-0.008681715 0.098580174 0.035049587 0.1019054 -0.0010646553 0.089992754 -0.028441157 0.09288119
-0.06605902 0.08714104 0.036063775 -0.030176844 0.08984307 0.09682588 0.07363498 -0.016782448
-0.04669028 0.03738651 0.11664699 -0.0018485464 0.075028785 -0.08722457 0.08288926 -0.09303149
-0.012092863 -0.11785819 0.0848273 0.0037498106 -0.1076165 -0.033433445 0.049640357 -0.00037267193
0.023787314 -0.09191303 -0.0037848714 -0.12852724 -0.122058965 0.0521205 -0.049782466 -0.081417695
-0.069012634 0.11384407 0.041816074 -0.05248658 -0.096988 0.013308152 -0.13132751 0.08837894
-0.0063934317 -0.04911489 -0.09364949 -0.05273095 0.004013632 0.07373846 -0.022832658 0.10245156
-0.03843537 -0.009400635 -0.033665493 0.06950064 -0.11894705 -0.011217016 -0.14138398 -0.08632224
0.06507059 -0.0125507815 -0.05227957 -0.06568739 0.097497545 0.049205385 0.053547308 -0.003466865
0.016943222 -0.0845382 -0.040138118 0.010750381 -0.10932719 0.12547074 -0.13209212 0.10767999
0.0066499934 -0.0632968 0.038276155 0.074488804 -0.1251735 -0.109307215 -0.02150159 0.1022924
0.062575094 0.039346524 0.008185246 0.10081588 0.05356554 0.114374794 -0.048998777 -0.13352768
0.005461402 -0.1208032 0.079393454 0.07773356 -0.09028136 0.06613086 -0.090298824 -0.08473476
0.050923627 0.119031325 -0.015875611 -0.019087862 -0.074448444 -0.11554478 0.05963843 0.09820181
0.07469663 -0.023470646 0.12135524 0.0046909917 -0.09923801 0.11345443 0.014873831 -0.038797483
0.04898093 0.0955773 -0.06939151 -0.10699028 0.055740934 0.056147862 -0.025280904 -0.051505342
0.058356054 -0.03821916 -0.032411 -0.039273117 -0.033026494 0.0064398027 -0.020006245 -0.09313109
-0.02525203 0.060368642 0.018616736 -0.031954844 0.13204913 -0.08833428 -0.052548017 -0.12849472
-0.017362475 0.087451525 -0.08204832 0.09980052 -0.090533204 -0.05716365 0.027644338 -0.061941456
-0.11250125 -0.14013751 -0.09550361 -0.12809789 -0.0449202 -0.0023194437 -0.01885889 -0.10586291
-0.00843443 -0.01571933 -0.05613934 0.04371373 -0.02007441 -0.020309001 -0.03753139 0.036590688
-0.11061652 -0.007931003 -0.095068015 0.0040324917 -0.11003742 -0.0055489033 -0.00073092233 0.0035202664
0.081315815 0.025502898 -0.09492338 0.029328411 0.06849109 -0.047733355 0.0329027 0.035962638
00000000: 7aae a3bd d4da b13d 68ca b8bc f389 abbd
00000010: 097b 93bc cab9 bbbd de7e 6a3d ddd4 473b
00000020: ebce eabc ca1c a83c acc9 823c e50c 903c
00000030: 4332 903d ec68 f7b9 f6a2 f83d 9279 8bbd
00000040: 435f 9abd c90f 9b3c d547 a2bd f6b0 8fbd
00000050: 34c9 8dbd 7973 923d 8cf4 60bd b255 873d
00000060: ac5a ddbd 9610 8a3d 9877 1e3c 9d6a 0ebd
00000070: 4e49 783c 9576 ad3d 3842 6dbb 6716 2cbd
00000080: 54ec 683c 4eae febd 08c0 343d 389d 943d
00000090: e6c8 9a3d 7a76 f73d 5f97 5cbc 7a05 243d
000000a0: 0c67 03bd d66f f43d dd61 623d 1cd3 84bc
000000b0: 9b98 87bd b1f0 1fbd fce5 c5bc 6f47 aebd
000000c0: 94cb a23d c240 713b 44ee 63bd 9859 aa3d
000000d0: fbd2 223d 5691 f2bc 54d2 cc3d a9fc 2c3d
000000e0: 38d3 dcbd 4e23 cdbd 75a8 6a3b 80ad 2c3d
000000f0: e5e6 fdbd a5d0 89bd 4f42 0a3d 0f10 8f3c
00000100: f8f5 c8bd 8c95 ce3d 8960 65bd d61b 6a3d
00000110: 2d28 08bd 9a30 f5bc 5d02 483c b06a b1bd
00000120: c03d 0ebc 67e4 c93d 2890 0f3d c7b3 d03d
00000130: e78b 8bba 1f4e b83d 6efd e8bc 7e38 be3d
00000140: f449 87bd 0077 b23d 9cb7 133d 6e35 f7bc
00000150: a5ff b73d a64c c63d f0cd 963d 587b 89bc
00000160: 4f3e 3fbd 9922 193d 9ee4 ee3d ed4a f2ba
00000170: b1a8 993d cca2 b2bd d8c1 a93d 4b87 bebd
00000180: 2521 46bc a25f f1bd efb9 ad3d 62bf 753b
00000190: 0a66 dcbd 82f1 08bd b053 4b3d 2e63 c3b9
000001a0: 9ddd c23c e63c bcbd 9b0b 78bb a59c 03be
000001b0: 0dfa f9bd 4e7c 553d b3e8 4bbd 52be a6bd
000001c0: 7f56 8dbd 1427 e93d 5547 2b3d 2bfc 56bd
000001d0: a5a1 c6bd 6f0a 5a3c b87a 06be 0500 b53d
000001e0: fe7f d1bb b22c 49bd 4ecb bfbd 69fc 57bd
000001f0: c984 833b 3104 973d 8e0b bbbc 20d2 d13d
00000200: 686e 1dbd 1f05 1abc d4e4 09bd 5a56 8e3d
00000210: 839a f3bd 93c7 37bc f6c6 10be b7c9 b0bd
00000220: bb43 853d cba1 4dbc 1a23 56bd 1c87 86bd
00000230: cbac c73d 968b 493d 6c54 5b3d 5834 63bb
00000240: 83cc 8a3c 5d22 adbd de67 24bd 5e22 303c
00000250: efe6 dfbd 677b 003e 2843 07be 5487 dc3d
00000260: 30e8 d93b c1a1 81bd 75c7 1c3d 968d 983d
00000270: 7b2d 00be 76dc dfbd 1a24 b0bc ae7e d13d
00000280: 5f27 803d d229 213d 691b 063c 8e78 ce3d
00000290: 8a67 5b3d 553d ea3d f1b2 48bd 7bbb 08be
000002a0: 8ff5 b23b ab67 f7bd 0999 a23d c632 9f3d
000002b0: 6fe5 b8bd 9e6f 873d 97ee b8bd 6b89 adbd
000002c0: 4b95 503d b2c6 f33d 920d 82bc 265e 9cbc
000002d0: 6d78 98bd bea2 ecbd 6d47 743d 081e c93d
000002e0: 8cfa 983d 8345 c0bc 1989 f83d e4b6 993b
000002f0: 4c3d cbbd cc5a e83d 5eb1 733c 1cea 1ebd
00000300: 3aa0 483d 08be c33d 231d 8ebd b81d dbbd
00000310: 9b50 643d 4dfb 653d e619 cfbc 44f7 52bd
00000320: c206 6f3d b28b 1cbd 66c1 04bd d9dc 20bd
00000330: ca46 07bd fb04 d33b 23e4 a3bc 83bb bebd
00000340: 58dd cebc 1c45 773d 2082 983c 15e3 02bd
00000350: e337 073e 9ae8 b4bd 973c 57bd 1f94 03be
00000360: c03b 8ebc c919 b33d f308 a8bd 3764 cc3d
00000370: 7969 b9bd 6e24 6abd 6176 e23c 53b6 7dbd
00000380: 0e67 e6bd 3580 0fbe 6697 c3bd 182c 03be
00000390: 3efe 37bd cf01 18bb f57d 9abc a7ce d8bd
000003a0: 9030 0abc d3c5 80bc 5df2 65bd 2b0d 333d
000003b0: 1773 a4bc 105f a6bc 84ba 19bd 1ee0 153d
000003c0: ea8a e2bd 0af1 01bc 05b3 c2bd fe22 843b
000003d0: 4d5b e1bd 93d3 b5bb 5e9b 3fba 45b4 663b
000003e0: e888 a63d 74eb d03c 3067 c2bd 2342 f03c
000003f0: 0e45 8c3d 0d84 43bd fbc4 063d 8f4d 133d
