final_project_last/saved_models/lstm.pth (torch, 205397 bytes, 9 tensors)

lstm.weight_ih_l0 f4 [256, 1]
-0.015204072 0.03756833 -0.11883883 0.05278021 -0.09793492 -0.07314932 0.0895184 -0.09612347
0.10786457 -0.012378126 0.06770527 0.10021599 -0.097529456 0.118839264 0.036497474 -0.058486655
0.034421593 0.035420403 -0.00420418 -0.11016551 0.100392476 0.01184915 -0.036217123 0.09579176
-0.06746407 -0.10080162 -0.058627874 0.09097685 0.11691061 -0.04070258 -0.10781987 0.11364634
0.01000987 -0.052108005 0.003341049 0.088342965 0.06357539 0.102872446 0.08159456 0.093881845
0.05740732 0.10564038 0.11309187 -0.1073042 -0.1091786 0.016852945 -0.060792893 -0.07203628
-0.0767325 -0.009955838 0.068715945 0.048839003 -0.097556576 0.008899465 0.035880968 0.030787617
-0.013917208 0.0013507307 0.057544038 0.0063586086 -0.03802629 0.069937885 -0.005000174 0.047297284
0.07373394 -0.05569476 -0.09225841 -0.045152307 0.01579319 -0.03448291 0.023380652 -0.030035332
0.06666082 -0.06332883 0.06812312 -0.12116419 -0.040773585 -0.120570585 -0.082581654 -0.020945862
0.036397353 0.09525503 0.11549707 -0.12373856 -0.12083882 -0.08916995 0.11676228 -0.054636315
-0.092809856 0.118904665 0.02589479 0.083876595 -0.08616276 -0.018469483 0.1247628 -0.1248503
0.035100847 -0.001681 -0.07072747 -0.08367528 -0.037349984 0.08115882 -0.105418205 -0.09464382
0.050957695 -0.045388743 -0.112512305 0.06890692 0.04036215 0.09661698 0.08715683 -0.023035988
-0.04174997 0.07258472 -0.044614255 -0.07150309 -0.103015706 -0.07136601 -0.022493124 -0.050319523
-0.081839606 -0.06306927 0.04678282 0.038041607 0.07370615 -0.013015494 -0.039848447 -0.0045196563
-0.11144559 0.03197758 0.07695523 0.111080185 -0.056078345 0.10481742 0.094931334 -0.03749995
0.064080924 0.07036522 -0.051152438 -0.10118665 -0.025071964 -0.09161173 0.07996331 0.016187847
0.036818966 -0.023545742 0.06649917 -0.055480063 0.11653878 -0.0066952556 0.082166314 -0.07651621
0.12322806 -0.11199492 -0.010234252 -0.104532525 0.1177102 0.09729934 -0.01201956 0.061344072
-0.011986569 0.09566456 -0.11294566 -0.03153442 0.092033565 0.1217666 0.050550997 0.08102164
-0.06806843 -0.022517145 0.0007610917 0.036535844 0.013057813 -0.017016053 0.11225949 -0.030891076
-0.038259745 -0.12143913 -0.05026187 -0.087439224 0.030788273 0.022930607 -0.0519709 -0.12351738
0.04724163 -0.11473663 -0.07944779 0.026253521 0.064308256 -0.122094765 0.01534608 0.05812584
0.022920996 -0.010856181 0.100553885 -0.098380685 0.0040810853 0.12337826 -0.0981794 0.07579622
0.036794513 0.04842703 0.079525754 -0.08775334 0.023881435 0.032540217 -0.10320319 0.086910486
0.1080161 0.10081354 0.037563697 0.018752858 -0.056359097 0.003186047 0.01554133 0.09547384
-0.10650255 -0.12007813 0.084264815 0.08914682 0.0810473 -0.011122316 0.016597584 -0.0017441213
0.020004615 0.121941105 -0.03169383 -0.09475963 0.009506449 -0.08505255 0.07360378 -0.11313218
0.10321641 -0.061104193 -0.05300799 -0.061529458 -0.056509286 -0.0037959963 0.11058155 -0.049853325
0.07957563 0.09814754 0.102752745 -0.11976369 0.0372954 0.105278194 -0.079964384 -0.057434425
-0.010120451 -0.035484925 -0.1002561 0.073941395 0.09617671 0.031404227 -0.03655553 0.11164403
00000000: 801a 79bc 40e1 193d c661 f3bd 1030 583d
00000010: 1a92 c8bd 50cf 95bd 6c55 b73d 62dc c4bd
00000020: 1ae8 dc3d a0cd 4abc 10a9 8a3d 0a3e cd3d
00000030: 86bd c7bd 0062 f33d 607e 153d b48f 6fbd
00000040: a8fd 0c3d fc14 113d 38c3 89bb 749e e1bd
00000050: 929a cd3d f022 423c 6858 14bd 782e c43d
00000060: 9a2a 8abd 1471 cebd c823 70bd 1252 ba3d
00000070: d46e ef3d c0b7 26bd aad0 dcbd 6abf e83d
00000080: 7000 243c 346f 55bd 80f5 5a3b 28ed b43d
00000090: d033 823d caae d23d 0c1b a73d 2045 c03d
000000a0: f023 6b3d fc59 d83d b69c e73d 4ec2 dbbd
000000b0: 0899 dfbd 300f 8a3c f801 79bd c287 93bd
000000c0: ee25 9dbd d01d 23bc f2ba 8c3d 680b 483d
000000d0: becb c7bd 10cf 113c ecf7 123d 5036 fc3c
000000e0: 0005 64bc 000b b13a 4cb3 6b3d e05b d03b
000000f0: 74c1 1bbd 983b 8f3d 80d8 a3bb ccba 413d
00000100: d201 973d 3020 64bd faf1 bcbd a0f1 38bd
00000110: b860 813c f43d 0dbd c888 bf3c a80c f6bc
00000120: 7885 883d 8cb2 81bd 2284 8b3d ee24 f8bd
00000130: 3402 27bd b6ed f6bd 9220 a9bd a896 abbc
00000140: 6415 153d 1215 c33d ba89 ec3d a46a fdbd
00000150: 587a f7bd bc9e b6bd 1021 ef3d 54ca 5fbd
00000160: 1813 bebd 4a84 f33d 5021 d43c 7ec7 ab3d
00000170: 1a76 b0bd 504d 97bc a483 ff3d 84b1 ffbd
00000180: e8c5 0f3d 0055 dcba 90d9 90bd f25d abbd
00000190: 4cfc 18bd 9836 a63d 80e5 d7bd 9ed4 c1bd
000001a0: 04b9 503d 8ce9 39bd da6c e6bd 121f 8d3d
000001b0: c852 253d 20df c53d 487f b23d f8b5 bcbc
000001c0: 0402 2bbd 4ca7 943d 70bd 36bd 3670 92bd
000001d0: e6f9 d2bd 5828 92bd 8043 b8bc d81b 4ebd
000001e0: 869b a7bd 762a 81bd 589f 3f3d 84d1 1b3d
000001f0: 40f3 963d f03e 55bc 2038 23bd a019 94bb
00000200: 963d e4bd ecfa 023d b49a 9d3d 027e e33d
00000210: 68b2 65bd 84aa d63d 5c6b c23d 8c99 19bd
00000220: dc3c 833d a41b 903d 3885 51bd f23a cfbd
00000230: b863 cdbc ee9e bbbd cec3 a33d 609c 843c
00000240: 7ccf 163d 00e3 c0bc b830 883d 103f 63bd
00000250: e2ab ee3d e063 dbbb d046 a83d 88b4 9cbd
00000260: fe5e fc3d 985d e5bd 90ad 27bc 2615 d6bd
00000270: 0c12 f13d e044 c73d b0ed 44bc ec43 7b3d
00000280: 5063 44bc c8eb c33d 0e50 e7bd 3c2a 01bd
00000290: 187c bc3d c460 f93d 900e 4f3d acee a53d
000002a0: 7667 8bbd e075 b8bc 0084 473a 9ca6 153d
000002b0: 70f0 553c 4065 8bbc 4ee8 e53d 480f fdbc
000002c0: 40b6 1cbd 14b5 f8bd 64df 4dbd 5613 b3bd
000002d0: b037 fc3c f8d8 bb3c 70df 54bd aef6 fcbd
000002e0: 7080 413d 0afb eabd 86b5 a2bd a011 d73c
000002f0: 0cb4 833d d20c fabd 206e 7b3c 5c15 6e3d
00000300: d0c4 bb3c 20de 31bc 32ef cd3d d07b c9bd
00000310: a0ba 853b bead fc3d 4812 c9bd 0c3b 9b3d
00000320: d8b5 163d 6c5b 463d 66de a23d 06b8 b3bd
00000330: 00a3 c33c e448 053d 325c d3bd 20fe b13d
00000340: 8c37 dd3d 5477 ce3d 64dc 193d 989f 993c
00000350: ccd8 66bd 00cd 503b 10a1 7e3c ca87 c33d
00000360: 021e dabd 86eb f5bd 0893 ac3d 9c92 b63d
00000370: 20fc a53d 603a 36bc a8f7 873c 009b e4ba
00000380: b8e0 a33c 42bc f93d 64d1 01bd 5611 c2bd
00000390: f0c0 1b3c 0830 aebd 94bd 963d d8b1 e7bd
000003a0: 2063 d33d 6448 7abd e81e 59bd 5006 7cbd
000003b0: 4876 67bd 40c6 78bb 9478 e23d 0033 4cbd
000003c0: 8cf8 a23d 9401 c93d 0870 d23d aa46 f5bd
000003d0: 10c3 183d 189c d73d 5ec4 a3bd 5c40 6bbd
000003e0: 40d0 25bc a458 11bd 1253 cdbd 966e 973d
000003f0: 4cf8 c43d b8a1 003d 40bb 15bd a0a5 e43d

lstm.weight_hh_l0 f4 [256, 64]
0.012747407 -0.050224766 0.100140706 0.082767144 0.05565144 -0.013064265 -0.01202926 -0.019876942
0.121996775 0.04008907 -0.09703785 0.12303826 0.11905292 0.09093474 -0.0116408765 0.06759396
0.015908942 -0.11107732 -0.10778645 0.09695049 0.043089673 -0.00847213 -0.06806332 -0.08155286
-0.10474002 -0.060413003 -0.047570825 0.026707679 0.0913817 -0.07458347 -0.03240089 -0.019442618
0.122041404 -0.10817458 0.020691738 -0.073159724 0.003903702 -0.08520962 -0.1148148 -0.038922966
-0.08274825 -0.07638541 0.035491973 -0.05859007 0.009670898 0.025846377 -0.08516356 0.017990291
-0.10702202 -0.098226786 0.11274661 -0.033049583 -0.029489696 0.042827025 -0.060829774 -0.11580747
-0.025085375 0.042208746 -0.033839107 -0.053169534 -0.11911912 0.115714684 -0.027538806 0.113730356
0.11020158 0.047478467 0.114801005 -0.053792417 -0.019004166 0.032715768 -0.08822255 0.11209795
0.0972106 -0.04706931 0.117790416 -0.12394081 -0.112173304 -0.11053263 0.007926911 0.010111496
-0.01591131 0.08448364 0.022816211 0.036920235 -0.02894716 -0.115739346 0.024444759 0.0855782
-0.098453596 0.0011857897 0.05964707 0.058424696 -0.025606021 -0.03203188 -0.08187118 0.022389442
-0.04389678 0.046540305 -0.0651027 -0.045763627 -0.08978024 -0.017394692 0.10415885 -0.06665027
-0.08393726 -0.036932483 0.040392235 -0.123668924 0.014330283 -0.04520625 -0.104838654 0.10282569
0.11711936 -0.07006593 -0.06081751 0.014594838 0.039611995 0.07481083 0.009713247 0.009263068
0.046638846 -0.004738748 -0.019990817 0.100225374 -0.06807251 0.0077002347 -0.0031359494 0.007247582
-0.12298261 0.022382066 0.0067041814 -0.117157295 -0.06767857 -0.017466858 0.119147345 0.08521652
0.07781285 0.008559853 0.035968915 0.028538361 0.08140278 -0.05063021 0.086329356 -0.111291155
-0.104614004 0.124522865 0.02348362 0.00274235 0.021069884 0.017027125 0.052779675 0.045437887
0.12405555 -0.07788348 -0.07926886 -0.12144317 -0.059407443 -0.042653084 -0.06790465 -0.07028858
0.042261556 0.048629448 0.10655177 0.012037203 0.04683812 -0.014581412 -0.112396106 0.09138638
0.0708088 -0.048659205 -0.04963562 0.052607566 -0.09047051 0.03409329 -0.08018656 -0.09665887
-0.0610974 -0.030767381 -0.02695489 0.07853256 -0.114528984 -0.107952714 -0.107490584 -0.06996438
-0.05076374 0.106042385 -0.10088807 -0.06995177 0.057915077 -0.0052330047 -0.029808149 0.089403495
-0.09671569 0.056183815 0.11559366 -0.045813218 -0.118698224 -0.03936161 0.078502774 -0.08685213
-0.0051140934 0.12276992 -0.049700588 0.048557356 -0.024588153 -0.097396895 -0.054570466 0.056290403
-0.008745775 -0.08003667 0.089665145 0.072231025 0.07484923 -0.016850501 0.11559284 -0.03864962
0.03948483 0.012744084 -0.11070432 -0.026908651 -0.03732434 -0.06163867 0.039421946 0.01199995
-0.023460954 0.04177636 -0.092796564 0.009661719 -0.065130904 -0.111528695 0.12231575 -0.017774448
-0.07356836 -0.043775797 0.023966298 0.07287696 0.08529654 0.04421629 -0.07319476 -0.06938441
0.06778249 -0.015527472 0.105835184 0.075696155 -0.015186176 -0.026516274 -0.11707264 -0.04139091
-0.10265575 0.0047139823 -0.07180177 -0.042108133 0.026365563 0.072480544 0.048113495 -0.014667973
00000000: 80da 503c 7cb8 4dbd 9216 cd3d d281 a93d
00000010: c4f2 633d 800b 56bc 6016 45bc f8d4 a2bc
00000020: 72d9 f93d 7034 243d c8bb c6bd 7cfb fb3d
00000030: 04d2 f33d fe3b ba3d 60b9 3ebc b46e 8a3d
00000040: 7853 823c 827c e3bd 24bf dcbd fa8d c63d
00000050: cc7e 303d b0ce 0abc c864 8bbd 3005 a7bd
00000060: f081 d6bd a073 77bd a0d9 42bd 10ca da3c
00000070: 5426 bb3d 38bf 98bd ccb6 04bd 2046 9fbc
00000080: d8f0 f93d a28a ddbd b881 a93c c4d4 95bd
00000090: 40d5 7f3b 6282 aebd 0624 ebbd b06d 1fbd
000000a0: ea77 a9bd f46f 9cbd 0860 113d 24fc 6fbd
000000b0: b072 1e3c c8bb d33c 3c6a aebd 6060 933c
000000c0: 5c2e dbbd 202b c9bd b2e7 e63d 005f 07bd
000000d0: 6094 f1bc 646b 2f3d a428 79bd 782c edbd
000000e0: d87f cdbc 14e3 2c3d e09a 0abd 4cc8 59bd
000000f0: baf4 f3bd d2fb ec3d 1099 e1bc 76eb e83d
00000100: 5eb1 e13d c878 423d ca1c eb3d 7055 5cbd
00000110: a0ae 9bbc f800 063d 06ae b4bd 9c93 e53d
00000120: 5a16 c73d c0cb 40bd 1a3c f13d aed4 fdbd
00000130: 1ebb e5bd ee5e e2bd e0df 013c b0aa 253c
00000140: 7058 82bc c205 ad3d 10e9 ba3c ac39 173d
00000150: 9822 edbc c008 edbd 6040 c83c a043 af3d
00000160: 0aa2 c9bd 806c 9b3a 7c50 743d bc4e 6f3d
00000170: b8c3 d1bc dc33 03bd 14ac a7bd 106a b73c
00000180: 1ccd 33bd 0ca1 3e3d 9054 85bd a472 3bbd
00000190: b4de b7bd 507f 8ebc 3c51 d53d f07f 88bd
000001a0: 4ce7 abbd 8446 17bd 5472 253d 2246 fdbd
000001b0: 90c9 6a3c 302a 39bd a6b5 d6bd 4696 d23d
000001c0: 46dc ef3d ba7e 8fbd c81b 79bd 301f 6f3c
000001d0: 3040 223d 6c36 993d 5024 1f3c 20c4 173c
000001e0: 6008 3f3d 8047 9bbb c8c3 a3bc f642 cd3d
000001f0: 9a69 8bbd 4052 fc3b 8084 4dbb 207d ed3b
00000200: 4ede fbbd 985a b73c c0ae db3b 2af0 efbd
00000210: 109b 8abd a816 8fbc 8603 f43d 0086 ae3d
00000220: 585c 9f3d a03e 0c3c 2454 133d 48c9 e93c
00000230: 80b6 a63d a061 4fbd 72cd b03d 9eec e3bd
00000240: de3f d6bd d805 ff3d b860 c03c 00b9 333b
00000250: c09a ac3c 787c 8b3c 802f 583d 141d 3a3d
00000260: d610 fe3d 6081 9fbd b657 a2bd 32b7 f8bd
00000270: 3855 73bd 00b5 2ebd 9811 8bbd 76f3 8fbd
00000280: 741a 2d3d ac2f 473d d037 da3d b037 453c
00000290: 54d9 3f3d e0e6 6ebc ee2f e6bd c828 bb3d
000002a0: 3404 913d e04e 47bd b84e 4bbd 087b 573d
000002b0: 9a48 b9bd 68a5 0b3d da38 a4bd 16f5 c5bd
000002c0: 4441 7abd e00b fcbc 80d0 dcbc aed5 a03d
000002d0: 2c8e eabd 5016 ddbd 0624 dcbd 7c49 8fbd
000002e0: a4ed 4fbd c02c d93d 689e cebd e042 8fbd
000002f0: 5c38 6d3d a079 abbb 3830 f4bc 2e19 b73d
00000300: e012 c6bd 0021 663d 5ebc ec3d a4a6 3bbd
00000310: 0e18 f3bd a439 21bd 10c6 a03d 88df b1bd
00000320: 2094 a7bb cc6e fb3d d892 4bbd 14e4 463d
00000330: 186d c9bc 0678 c7bd 4885 5fbd c490 663d
00000340: 704a 0fbc 44ea a3bd 5ca2 b73d dced 933d
00000350: 8e4a 993d 100a 8abc f0bb ec3d 104f 1ebd
00000360: d8ba 213d 90cc 503c f2b8 e2bd 886f dcbc
00000370: 68e1 18bd d478 7cbd e878 213d 709b 443c
00000380: 3031 c0bc b01d 2b3d 200c bebd 304c 1e3c
00000390: 5a63 85bd 2869 e4bd ae80 fa3d b89b 91bc
000003a0: 02ab 96bd 404e 33bd f854 c43c 8440 953d
000003b0: f4af ae3d 241c 353d 22e7 95bd 6a19 8ebd
000003c0: 8cd1 8a3d f066 7ebc 1ec0 d83d 9606 9b3d
000003d0: 70cf 78bc a838 d9bc c8c3 efbd 8489 29bd
000003e0: 2e3d d2bd c077 9a3b ce0c 93bd 9479 2cbd
000003f0: 98fc d73c ae70 943d a812 453d f051 70bc

lstm.bias_ih_l0 f4 [256]
0.10967556 -0.030666202 0.08077501 0.016583681 -0.01012899 -0.07264839 0.091455325 -0.050086483
-0.12437467 -0.06318095 -0.074543655 -0.11619383 0.07348414 0.03318882 -0.05057648 0.0033924133
-0.003272891 -0.09324634 0.020533422 0.09642686 -0.016687945 0.08842552 0.06242591 -0.107253015
0.030404493 0.0025032312 0.105950624 -0.05047837 0.029959112 -0.029979214 -0.09110077 -0.007710427
-0.05395904 -0.02961956 -0.113654 -0.027585149 -0.01897493 0.0026881695 -0.10635507 0.044269085
-0.019516826 0.08095151 -0.0696677 0.085031286 -0.031089127 0.09586352 0.026636824 0.07062705
0.08995134 0.042646796 0.056004614 -0.11798173 -0.012328029 0.060117498 0.11055033 0.07321367
-0.057580113 -0.046624154 0.00023803115 -0.0027971566 -0.083134174 0.122946724 0.05510451 0.09115301
0.04771109 0.10968709 -0.11443968 0.00083963573 -0.0012809932 -0.1080834 -0.026106507 0.014415801
-0.08613841 -0.0053274035 0.11532968 0.11035402 0.03293577 0.020926312 -0.056228384 0.036089316
0.039077938 -0.10734357 0.058995217 -0.01948665 0.05112727 0.12325765 0.122195765 -0.083706826
0.019560963 0.03501667 -0.012437716 0.011053339 -0.01674129 0.012862474 0.10704094 -0.07579324
0.10902512 0.11003068 0.09526488 -0.02874197 -0.10940494 -0.04959245 -0.036038846 -0.11814973
-0.06439021 0.04862915 0.035810456 -0.06311168 0.077354595 -0.08671981 -0.11977582 -0.11460535
-0.0013479441 -0.107040554 0.034497827 0.09099284 0.0055562705 0.015905872 0.044758588 -0.019375518
-0.047451824 0.122186214 -0.07549101 0.12415768 -0.09668389 0.014048293 0.05806887 -0.105758354
0.07877113 -0.043618843 -0.09518723 0.00010795891 0.10393986 0.07759853 0.025873989 -0.07415114
0.04278417 -0.07603057 0.10521987 0.10854313 0.008796662 -0.051742822 0.116325825 0.06993538
0.072547 -0.05705601 -0.024246842 -0.11718045 0.055557236 -0.100455076 -0.005782798 0.09987122
-0.07912317 -0.101200804 -0.028578311 -0.04366781 0.08394772 0.024407238 -0.028164163 -0.055004835
0.05251378 0.06671782 0.10434446 0.10403979 0.044620797 -0.10969904 -0.053629354 -0.06467807
-0.006181866 -0.017265394 0.11875376 0.12449363 0.015099317 0.0999167 -0.12423073 -0.073793605
0.010418683 0.033206627 0.09490439 0.06735158 0.040639386 0.018363327 -0.12267779 0.12285128
-0.11050439 0.059104666 -0.055549428 0.0014694333 -0.01843676 0.113998055 -0.0731847 -0.1162657
0.051020235 -0.043337807 0.121726945 -0.0036228895 -0.076318175 0.037031174 -0.076700345 -0.020342052
-0.036015347 0.07364671 0.028443038 0.016803712 0.03707014 -0.005354315 0.0301103 0.12395151
-0.024185643 0.05644554 -0.021629393 0.00082318485 -0.012159392 -0.08221409 0.07712871 -0.082621396
0.020991609 -0.071098834 0.039379105 0.024280205 -0.12041642 -0.11217548 -0.077230245 -0.010671154
-0.11023837 0.09956786 -0.10970549 0.07087219 -0.06326254 -0.012027785 -0.018933564 0.124732345
-0.096924916 0.0422668 -0.09369534 0.11568786 0.02031298 -0.00466235 -0.11240673 -0.112773106
-0.03298308 0.06804556 -0.04980448 0.12127578 0.028710127 0.10215895 -0.089766994 0.111567155
0.039767414 0.06500837 0.0041202307 0.015039474 0.025034785 -0.10886721 -0.11517151 0.08297898
00000000: 949d e03d b037 fbbc 5e6d a53d 80da 873c
00000010: 10f4 25bc aec8 94bd ee4c bb3d 7c27 4dbd
00000020: 26b8 febd 0465 81bd 58aa 98bd 08f7 edbd
00000030: da7e 963d 00f1 073d 4829 4fbd 4053 5e3b
00000040: 007e 56bb f0f7 bebd b535 a83c 727b c53d
00000050: 28b5 88bc 7018 b53d 50b2 7f3d 78a7 dbbd
00000060: d812 f93c 400d 243b a4fc d83d 68c2 4ebd
00000070: d06c f53c f896 f5bc 0a93 babd c0a7 fcbb
00000080: 2804 5dbd b8a4 f2bc 6ec3 e8bd 40fa e1bc
00000090: 5071 9bbc 002c 303b b0d0 d9bd 8053 353d
000000a0: c0e1 9fbc e8c9 a53d f0ad 8ebd e224 ae3d
000000b0: a0ae febc 1854 c43d 7835 da3c eaa4 903d
000000c0: 6838 b83d 68ae 2e3d 1865 653d 68a0 f1bd
000000d0: 80fb 49bc c43d 763d 3668 e23d 0cf1 953d
000000e0: 20d9 6bbd f8f8 3ebd 0098 7939 8050 37bb
000000f0: 4042 aabd 7ecb fb3d 44b5 613d 6eae ba3d
00000100: b46c 433d a0a3 e03d 5a5f eabd 001b 5c3a
00000110: 00e7 a7ba d45a ddbd 50dd d5bc 4030 6c3c
00000120: 5669 b0bd 8091 aebb f831 ec3d 4a01 e23d
00000130: a8e7 063d a86d ab3c bc4f 66bd 64d2 133d
00000140: 3010 203d f2d6 dbbd f8a4 713d 78a2 9fbc
00000150: d46a 513d 826e fc3d c641 fa3d 7c6e abbd
00000160: 503e a03c a46d 0f3d 90c7 4bbc 1019 353c
00000170: 0825 89bc 20bd 523c 4838 db3d 7c39 9bbd
00000180: 9048 df3d c457 e13d 3c1a c33d 4874 ebbc
00000190: b20f e0bd 7421 4bbd 789d 13bd 7cf8 f1bd
000001a0: 04df 83bd 5c2f 473d fcad 123d b240 81bd
000001b0: 166c 9e3d 289a b1bd 064d f5bd 36b6 eabd
000001c0: 80ad b0ba 1438 dbbd 984d 0d3d 745a ba3d
000001d0: 6011 b63b 084d 823c c854 373d 68b9 9ebc
000001e0: d85c 42bd c43c fa3d 089b 9abd 6246 fe3d
000001f0: 3402 c6bd d02a 663c a0d9 6d3d d697 d8bd
00000200: c252 a13d aca9 32bd 86f1 c2bd 0068 e238
00000210: 6cde d43d faeb 9e3d b0f5 d33c 8edc 97bd
00000220: 743e 2f3d eab5 9bbd 847d d73d dc4b de3d
00000230: e01f 103c 48f0 53bd 3c3c ee3d 483a 8f3d
00000240: 8693 943d 90b3 69bd 50a1 c6bc 4efc efbd
00000250: fc8f 633d 64bb cdbd a07d bdbb 4889 cc3d
00000260: 540b a2bd 5e42 cfbd 101d eabc 04dd 32bd
00000270: c8ec ab3d b0f1 c73c 88b8 e6bc c04c 61bd
00000280: b018 573d 5aa3 883d 8cb2 d53d d012 d53d
00000290: 4cc4 363d e4a9 e0bd 74aa 5bbd f075 84bd
000002a0: 4091 cabb 2870 8dbc 2c35 f33d 84f6 fe3d
000002b0: 2063 773c 20a1 cc3d ae6c febd 1a21 97bd
000002c0: 20b3 2a3c ac03 083d 3c5d c23d a0ef 893d
000002d0: 7c75 263d b06e 963c 7e3e fbbd 7499 fb3d
000002e0: 2050 e2bd bc17 723d cc87 63bd 009a c03a
000002f0: b008 97bc d077 e93d dce1 95bd b61c eebd
00000300: 98fa 503d fc82 31bd fa4b f93d 006e 6dbb
00000310: b44c 9cbd 00ae 173d 1215 9dbd 60a4 a6bc
00000320: d484 13bd 16d4 963d 6001 e93c f0a7 893c
00000330: dcd6 173d 4073 afbb e0a9 f63c 4ada fd3d
00000340: f820 c6bc 7033 673d 2030 b1bc 00cb 573a
00000350: 3038 47bc dc5f a8bd a8f5 9d3d 6835 a9bd
00000360: 98f6 ab3c 449c 91bd fc4b 213d 48e7 c63c
00000370: e29c f6bd 42bc e5bd e42a 9ebd 10d6 2ebc
00000380: a8c4 e1bd 3cea cb3d 46ad e0bd 7025 913d
00000390: ca8f 81bd 3010 45bc 901a 9bbc ac73 ff3d
000003a0: 9280 c6bd f41f 2d3d 58e3 bfbd c2ed ec3d
000003b0: 6867 a63c a0c6 98bb 8035 e6bd 96f5 e6bd
000003c0: 4419 07bd 785b 8b3d c8ff 4bbd 705f f83d
000003d0: 8031 eb3c b638 d13d c2d7 b7bd 527d e43d
000003e0: 28e3 223d 1c23 853d 0003 873b 2068 763c
000003f0: c015 cd3c c6f5 debd 0adf ebbd e2f0 a93d

lstm.bias_hh_l0 f4 [256]
-0.03549634 0.027640104 0.060826257 -0.057918116 0.050048113 0.09402813 -0.027151987 -0.06680331
-0.013174459 -0.1080139 0.058860064 0.06361665 -0.05549787 0.07367079 0.00977543 0.04696104
0.00954026 -0.0019092262 -0.10405912 0.054214075 0.11674532 -0.07513678 -0.1090395 -0.0927127
0.025973469 0.01740767 0.08822566 0.082961366 -0.018057674 0.016878873 -0.08766334 0.02326499
-0.10869075 -0.049998283 0.023435995 0.060839027 -0.09103054 -0.12356919 -0.013460919 -0.02354902
0.008884475 0.0682891 -0.12451573 -0.092092305 -0.025706246 -0.050033033 0.057895496 0.03292568
-0.07590155 0.048592523 0.09810291 0.028793082 -0.046132535 -0.023432449 -0.011940643 0.04800071
0.117716506 -0.10749467 -0.115306914 0.07961835 0.054991648 -0.015559226 0.05476372 -0.015936598
-0.108229786 0.09688862 -0.037804782 0.05554366 -0.10637356 -0.092160285 -0.03741914 -0.043100685
-0.05357091 0.100588664 -0.120285645 -0.09367174 0.11317228 0.078741536 -0.077330425 -0.022522196
0.043258145 -0.11837265 -0.103054 -0.024015993 0.08200362 0.08852807 0.0030169338 -0.11769001
-0.058065355 0.06263371 -0.10075346 -0.11801264 -0.081129 -0.06986076 -0.061952233 -0.027826771
0.04923451 -0.09243488 -0.093645185 0.034157664 -0.0589841 -0.070252925 -0.11835778 0.08116324
-0.011642292 0.093792945 -0.08881059 -0.11539452 0.09651694 -0.022992969 0.021594286 0.016391218
0.04399222 0.094309226 -0.041513115 -0.09261787 -0.053746283 -0.05756575 -0.014871582 -0.06359795
0.08500545 -0.018052787 -0.08878219 -0.02292952 0.00012151897 -0.08330312 0.0791046 0.11077915
-0.07590838 -0.002021119 0.040860772 -0.013614044 -0.043009788 0.028116241 -0.05809468 0.011763915
-0.007279739 0.026202112 -0.11503202 0.064644456 -0.06104961 0.01627642 0.01688525 -0.010142073
-0.067546695 -0.10514939 0.055109054 -0.073621064 -0.064584434 0.022302076 0.06534462 0.06657337
-0.10128796 -0.08543299 0.082612306 -0.075262964 0.09079696 0.09861755 -0.10118379 0.043096542
-0.056090295 0.10379082 0.0033522546 0.007390529 -0.07632987 0.070496485 0.078212306 0.11384036
-0.116902515 -0.0029726624 0.114604115 -0.0955327 -0.065947995 -0.08267513 0.06169556 0.07142614
0.060091257 -0.0634561 0.039592534 -0.0033602118 0.07721871 0.03321348 -0.07872668 -0.041575104
0.029746577 -0.11965966 -0.12245245 0.07423082 -0.103532836 0.07455881 0.052882403 0.106958345
0.03651707 -0.11777654 -0.066642016 0.018967047 -0.016732901 -0.11029303 0.040620685 -0.11624633
-0.0035551041 0.029267326 -0.09442513 0.09718031 -0.059205443 0.06632857 0.072296664 0.05987218
-0.020359084 -0.09567329 -0.11705743 0.042951494 0.1139819 0.08784559 0.042970166 0.0357185
0.05427064 0.08711673 0.026187286 0.03933321 -0.043664113 -0.039110005 -0.092195734 -0.11447279
0.056733146 0.04301694 0.07134433 0.06503664 -0.108345374 -0.08070211 0.06444427 0.06322554
0.003893584 -0.011157915 0.02583851 -0.1070361 -0.08915454 -0.036095902 -0.07613638 -0.108381554
-0.021810919 0.0063100904 -0.039707795 0.024208218 0.09097399 0.105910346 0.06875846 -0.010036945
0.09538387 0.11457063 0.110477805 -0.09182373 -0.060162663 -0.084585786 -0.102302864 0.010672271
00000000: 9c64 11bd 806d e23c f424 793d 8c3b 6dbd
00000010: 40ff 4c3d d291 c03d d86d debc 2cd0 88bd
00000020: b0d9 57bc 6436 ddbd 4017 713d 7249 823d
00000030: bc51 63bd b6e0 963d 2029 203c 385a 403d
00000040: c04e 1c3c 003f faba f31c d5bd 940f 5e3d
00000050: 2c18 ef3d 50e1 99bd 1a50 dfbd 28e0 bdbd
00000060: 50c6 d43c 889a 8e3c a8af b43d a6e7 a93d
00000070: b0ed 93bc 9045 8a3c d688 b3bd 3896 be3c
00000080: 4299 debd 00cb 4cbd d8fc bf3c 5832 793d
00000090: 386e babd d811 fdbd 308b 5cbc e0e9 c0bc
000000a0: 3090 113c 28db 8b3d 1a02 ffbd e49a bcbd
000000b0: e895 d2bc 70ef 4cbd d423 6d3d 14dd 063d
000000c0: 4672 9bbd f408 473d 2eea c83d 78df eb3c
000000d0: 78f5 3cbd 68f5 bfbc b0a2 43bc 649c 443d
000000e0: 5a15 f13d 2a26 dcbd 0826 ecbd f20e a33d
000000f0: ec3e 613d 20ec 7ebc ec4f 603d 788d 82bc
00000100: 94a7 ddbd 8a6d c63d 30d9 1abd c081 633d
00000110: 62da d9bd 88be bcbd d044 19bd 588a 30bd
00000120: 2c6d 5bbd 6e01 ce3d 5258 f6bd f8d6 bfbd
00000130: dec6 e73d 3e43 a13d 6a5f 9ebd 7880 b8bc
00000140: 742f 313d 5c6d f2bd fa0d d3bd 30bd c4bc
00000150: 84f1 a73d 344e b53d c0b7 453b 7607 f1bd
00000160: f0d5 6dbd 1a46 803d d457 cebd 9cb0 f1bd
00000170: f626 a6bd 2813 8fbd a0c1 7dbd f8f4 e3bc
00000180: 20aa 493d 804e bdbd 0cc9 bfbd e8e8 0b3d
00000190: 5099 71bd c4e0 8fbd 9065 f2bd ea38 a63d
000001a0: 50bf 3ebc 8416 c03d 54e2 b5bd f653 ecbd
000001b0: acaa c53d c05b bcbc 80e6 b03c e046 863c
000001c0: 3031 343d 3225 c13d a809 2abd 70ae bdbd
000001d0: 1025 5cbd 10ca 6bbd f0a7 73bc a43f 82bd
000001e0: 5617 ae3d 70e3 93bc 70d3 b5bd b0d6 bbbc
000001f0: 00d8 fe38 d49a aabd 9801 a23d 2ee0 e23d
00000200: da75 9bbd c074 04bb a05d 273d 700d 5fbc
00000210: 082b 30bd 0854 e63c b0f4 6dbd 70bd 403c
00000220: e08a eebb d0a5 d63c e895 ebbd 5064 843d
00000230: 280f 7abd 2056 853c f052 8a3c f02a 26bc
00000240: ec55 8abd 9058 d7bd 08ba 613d a4c6 96bd
00000250: d844 84bd d8b2 b63c 66d3 853d 9e57 883d
00000260: 1070 cfbd 7ef7 aebd a430 a93d 7823 9abd
00000270: c2f3 b93d 00f8 c93d 7239 cfbd 0086 303d
00000280: f0be 65bd 4890 d43d 80b1 5b3b 402c f23b
00000290: d652 9cbd 7660 903d c62d a03d 2225 e93d
000002a0: 966a efbd 00d1 42bb 90b5 ea3d a6a6 c3bd
000002b0: be0f 87bd 9451 a9bd 7cb4 7c3d de47 923d
000002c0: 4022 763d 46f5 81bd c82b 223d 0037 5cbb
000002d0: d824 9e3d dc0a 083d 743b a1bd a84a 2abd
000002e0: 18af f33c 2010 f5bd 5ac8 fabd 5406 983d
000002f0: 0609 d4bd 4ab2 983d 389b 583d fa0c db3d
00000300: ec92 153d d434 f1bd 9c7b 88bd c860 9b3c
00000310: 7013 89bc 50e1 e1bd e061 263d 8e12 eebd
00000320: c0fc 68bb 08c2 ef3c f661 c1bd 7806 c73d
00000330: 6881 72bd 46d7 873d 4610 943d 883c 753d
00000340: 18c8 a6bc 5cf0 c3bd cebb efbd e8ed 2f3d
00000350: 586f e93d 64e8 b33d 7c01 303d 904d 123d
00000360: e44a 5e3d 426a b23d b886 d63c dc1b 213d
00000370: 24d9 32bd d031 20bd 1ed1 bcbd b670 eabd
00000380: 0461 683d 8832 303d fa1c 923d ee31 853d
00000390: 2ee4 ddbd 2647 a5bd 5cfb 833d 647c 813d
000003a0: 802b 7f3b b0cf 36bc 48ab d33c be35 dbbd
000003b0: a896 b6bd 4cd9 13bd 64ed 9bbd 26f7 ddbd
000003c0: d0ac b2bc e0c4 ce3b a4a4 22bd 5050 c63c
000003d0: 9250 ba3d 86e7 d83d 3cd1 8c3d 0072 24bc
000003e0: 9e58 c33d 02a4 ea3d 3042 e23d 140e bcbd
000003f0: 206d 76bd 503b adbd 2a84 d1bd c0da 2e3c

lstm.weight_ih_l1 f4 [256, 64]
0.09694052 -0.10549885 0.064936414 -0.0671787 0.08620629 0.059698492 -0.12378883 -0.01438494
-0.03039643 0.029060677 -0.091341585 -0.09053257 -0.11738022 0.0920897 -0.0661668 0.013707042
-0.0048148995 0.04555302 -0.051150095 0.021267653 -0.0439395 0.08415422 0.12406522 -0.08548643
0.032848224 0.08921336 0.07982883 -0.10104878 0.10896613 -0.00073988736 -0.052991778 -0.0549559
-0.10089783 0.06792271 -0.02944547 0.04828185 -0.005002787 0.009016007 -0.06546798 0.10237539
0.044311337 0.08676231 -0.050652415 0.122072235 -0.087917805 0.12116456 -0.0931707 -0.06575768
0.114660725 -0.09098907 0.02533914 -0.017735392 0.041966304 0.0925775 0.0065619797 0.055337235
-0.017667145 -0.0347815 0.0744995 -0.03145515 0.0135950595 0.088468745 -0.032204866 -0.111175194
-0.124726415 0.014821842 -0.01369746 0.05855173 -0.11571199 0.048462197 0.040895373 -0.10149513
0.03380077 0.068548605 -0.04979259 0.059992 -0.08444701 0.020703765 -0.053921357 0.08342527
0.10315719 -0.009972422 -0.004952718 -0.108667925 -0.07192238 0.0024246522 -0.03509389 0.04770408
-0.014806807 -0.03579025 -0.119325995 0.003971962 -0.019032476 -0.08185013 0.034618467 0.084871724
0.1388902 -0.03109169 0.07376261 0.09344214 -0.11567161 0.072060406 -0.060668908 0.040831253
0.13935803 -0.0695723 0.044482484 0.036629453 -0.09146044 -0.0304835 0.07961562 -0.03472218
-0.010863006 -0.06415379 -0.08591553 -0.021046415 0.0080881715 0.09568513 -0.0479282 -0.09257585
0.014778212 -0.046265334 -0.11179873 -0.11712156 0.101298556 0.002344767 0.0647423 0.018702677
-0.05353877 0.103323236 0.09291834 0.08409847 -0.013718903 0.05758746 -0.06545383 -0.06116356
0.04103137 -0.12350497 0.11916438 -0.060344324 0.111512706 0.027304815 0.03620644 0.049965143
-0.001475581 -0.011056802 -0.03608538 -0.06760134 -0.025780529 -0.06295429 0.070177644 -0.112529814
0.106201366 -0.031055123 -0.10953519 -0.0640504 -0.036197864 -0.046126217 0.09495452 0.024949059
-0.06319721 0.07114561 0.080989316 0.043295294 0.025098173 -0.064565524 -0.06294168 0.090292126
-0.02966863 -0.07276742 0.04532957 -0.10025595 -0.057736427 0.053122282 -0.114310995 -0.09492934
-0.064959005 -0.048283532 0.020517187 -0.052072853 0.10660526 0.10587619 0.052312106 0.12267412
0.04013756 0.114428654 0.070374295 -0.094868734 0.039418638 -0.07026547 0.0765284 0.093800575
0.042017385 -0.0062229782 -0.008860841 -0.011233836 -0.06651662 0.022833541 -0.0023203492 -0.07616106
-0.032159965 0.019530267 0.09235334 0.0156047195 0.056247815 -0.11342994 -0.023173451 0.038231686
-0.009113082 -0.07436872 -0.054186817 -0.0069600195 -0.09692107 0.09371097 0.07175873 0.09966604
-0.055420443 -0.040469766 0.1191753 -0.068304546 0.09438234 -0.053433403 0.07239184 -0.10643552
0.08144165 -0.122644424 0.09459819 0.10755871 0.116825856 0.0463755 -0.10986639 0.090154916
0.084458955 -0.10581605 0.11682017 0.08171338 -0.12119691 -0.09386949 -0.09680258 -0.044391572
-0.010719329 0.09907791 -0.024232648 -0.072705865 0.017217442 -0.08899347 -0.06937264 -0.035176292
-0.11408982 0.0361242 -0.038787186 -0.036577042 0.10568531 0.09133709 -0.03495355 0.025467984
00000000: c088 c63d c80f d8bd 62fd 843d fc94 89bd
00000010: ec8c b03d 6886 743d 0085 fdbd d0ae 6bbc
00000020: ef01 f9bc a810 ee3c 4c11 bbbd 2469 b9bd
00000030: 0a65 f0bd 8699 bc3d 7682 87bd 8093 603c
00000040: 4ec6 9dbb ce95 3a3d c382 51bd 8039 ae3c
00000050: e8f9 33bd 0c59 ac3d e815 fe3d 8213 afbd
00000060: dc8b 063d 7eb5 b63d 4c7d a33d aaf2 cebd
00000070: a229 df3d 00f5 41ba e80d 59bd 7019 61bd
00000080: 86a3 cebd 101b 8b3d a037 f1bc 30c3 453d
00000090: 6bee a3bb e0b7 133c 1414 86bd 30aa d13d
000000a0: ce7f 353d 70b0 b13d e878 4fbd 0201 fa3d
000000b0: 400e b4bd 2025 f83d 48d0 bebd f6ab 86bd
000000c0: 3ed3 ea3d 7a58 babd 0794 cf3c d049 91bc
000000d0: dce4 2b3d 4699 bd3d e005 d73b 4ca9 623d
000000e0: b0ba 90bc 0c77 0ebd 3293 983d 1ed7 00bd
000000f0: d0bd 5e3c 1a2f b53d 40e9 03bd d2af e3bd
00000100: 9070 ffbd 50d7 723c 506b 60bc f0d3 6f3d
00000110: 68fa ecbd 4c80 463d e881 273d aedc cfbd
00000120: ad72 0a3d 3663 8c3d 51f3 4bbd 2cba 753d
00000130: 8ef2 acbd f19a a93c a4dc 5cbd deda aa3d
00000140: 1444 d33d 5f63 23bc 694a a2bb 4a8d debd
00000150: 0a4c 93bd eae6 1e3b 9cbe 0fbd 5a65 433d
00000160: 4098 72bc cc98 12bd 3061 f4bd 3b27 823b
00000170: ffe9 9bbc 0aa1 a7bd 18cc 0d3d 3ad1 ad3d
00000180: 3c39 0e3e 00b4 febc da10 973d 985e bf3d
00000190: 3de5 ecbd 6894 933d f67f 78bd ac3e 273d
000001a0: dfb3 0e3e ec7b 8ebd 4433 363d c408 163d
000001b0: 9c4f bbbd 88b8 f9bc 840d a33d d838 0ebd
000001c0: c0fa 31bc 1063 83bd 7bf4 afbd 8869 acbc
000001d0: 4084 043c 91f6 c33d 5c50 44bd 6898 bdbd
000001e0: 5020 723c b880 3dbd bcf6 e4bd 6edd efbd
000001f0: 9e75 cf3d aaaa 193b 9c97 843d 5b36 993c
00000200: 784b 5bbd 229b d33d f84b be3d d23b ac3d
00000210: 40c5 60bc d4e0 6b3d a80c 86bd a486 7abd
00000220: 8310 283d 2cf0 fcbd 740c f43d 9c2b 77bd
00000230: c660 e43d 59ae df3c 344d 143d 40a8 4c3d
00000240: 4868 c1ba 9727 35bc 43ce 13bd 9272 8abd
00000250: b031 d3bc 2eee 80bd 4cb9 8f3d 0876 e6bd
00000260: 1a80 d93d 5067 febc fc53 e0bd db2c 83bd
00000270: 3644 14bd d8ee 3cbd 8477 c23d f861 cc3c
00000280: 8a6d 81bd cab4 913d badd a53d 6856 313d
00000290: af9a cd3c ee3a 84bd 91e7 80bd 14eb b83d
000002a0: a00b f3bc 1607 95bd 80ab 393d fe52 cdbd
000002b0: 087d 6cbd c096 593d e21b eabd 506a c2bd
000002c0: 3a09 85bd f4c4 45bd a913 a83c 584a 55bd
000002d0: dc53 da3d 9ed5 d83d 3845 563d 923c fb3d
000002e0: 4867 243d 9259 ea3d 6620 903d 8a4a c2bd
000002f0: 7075 213d 58e7 8fbd ecba 9c3d 841a c03d
00000300: 6c1a 2c3d 20ea cbbb 102d 11bc 200e 38bc
00000310: de39 88bd 680d bb3c 0011 18bb 54fa 9bbd
00000320: 2bba 03bd f0fd 9f3c bf23 bd3d f0aa 7f3c
00000330: 1c64 663d f54d e8bd 40d6 bdbc d498 1c3d
00000340: 094f 15bc a14e 98bd fff2 5dbd e010 e4bb
00000350: 8e7e c6bd 89eb bf3d 3ef6 923d b51d cc3d
00000360: 8c00 63bd a0c3 25bd 2e12 f43d 41e3 8bbd
00000370: 874b c13d fcdc 5abd 2c42 943d defa d9bd
00000380: e1ca a63d 002d fbbd b2bc c13d be47 dc3d
00000390: 6542 ef3d 3cf4 3d3d a101 e1bd 24a3 b83d
000003a0: d1f8 ac3d 16b6 d8bd 6a3f ef3d 5859 a73d
000003b0: 1636 f8bd a63e c0bd 6e40 c6bd f0d3 35bd
000003c0: 20a0 2fbc 5ce9 ca3d 8c83 c6bc d0e6 94bd
000003d0: 980b 8d3c 3542 b6bd 3e13 8ebd 0415 10bd
000003e0: eca7 e9bd f8f6 133d 50df 1ebd cfd1 15bd
000003f0: 8a71 d83d f10e bb3d 742b 0fbd 3ca2 d03c

lstm.weight_hh_l1 f4 [256, 64]
-0.056321166 -0.10340269 0.079071365 -0.061599467 0.076746665 0.041573938 0.03289776 -0.10886418
-0.04440271 -0.048916467 -0.048417643 0.07093033 0.10363647 0.018361982 0.0473934 0.046194617
0.02521404 -0.0912713 0.031450894 -0.101091705 -0.059666663 0.018677223 -0.07439767 -0.07397199
-0.10315018 0.012347312 0.07757944 0.08628766 0.09804446 0.054819025 0.0013913527 0.011524745
-0.030121414 0.013679725 0.06552706 -0.018566012 -0.013036363 -0.018607568 -0.012182837 0.05808711
0.0789217 -0.12900572 -0.048932306 0.0662379 -0.09844814 0.08934789 0.05953 -0.07528691
0.10286548 0.05052997 -0.055932608 -0.020150995 0.069851704 0.0048154294 0.09073197 0.054011088
-0.10304452 -0.13664597 0.041162938 0.100260645 -0.11292615 0.016757138 0.10110054 0.07237176
-0.0048377463 0.08903353 0.09999992 -0.1289579 0.08390722 -0.024932103 -0.0076100295 -0.019210188
0.0029173552 -0.04445307 0.11087375 0.07800823 -0.028763708 0.055272818 0.08580041 -0.08691359
-0.07562158 -0.012945322 0.10759007 0.058994748 0.07997003 0.0294357 -0.08326612 0.07735482
-0.11176133 -0.07245526 0.07941053 -0.10825812 0.108441114 0.059231192 -0.047535684 -0.07643249
0.019352665 0.031292498 0.01300719 0.047795154 0.11230964 -0.03296424 -0.0675847 -0.100638725
-0.08760702 -0.042553853 0.08446979 -0.015238409 -0.11630274 0.047852114 -0.1295672 -0.01701883
0.051477447 -0.07344837 0.059163265 0.062240615 0.11968227 -0.11981439 -0.026780501 -0.060733885
0.061758693 0.066009104 -0.060715698 0.09024008 0.08187445 0.03903456 -0.0016389579 -0.08724046
0.045903094 0.11723491 0.053421434 -0.078632556 0.023099087 -0.03353874 0.07709291 0.11106734
-0.030580582 -0.08133953 -0.08494912 0.012601487 -0.124899305 0.045007575 0.0055877455 -0.08529423
0.10264217 -0.10042064 0.04496694 -0.1369099 0.08188969 0.09368951 0.08708188 0.09415852
-0.048509922 0.047556117 0.10292063 0.012157099 -0.055902813 0.08773589 0.02831294 -0.12136598
0.042869925 -0.058215264 -0.11232561 -0.106659725 8.561826e-05 -0.03105714 0.106792636 -0.014522512
-0.027064139 -0.13407832 -0.025215266 0.10870881 0.07398937 -0.095865525 -0.024482725 0.13154778
0.012354497 -0.12186572 -0.055533685 0.018372456 0.047145624 -0.033992723 -0.09506114 -0.05715442
-0.09288941 -0.016763356 -0.091251485 -0.09887884 0.044365678 0.11873935 0.051134244 0.099131085
0.049000703 -0.0007543473 0.016719365 -0.059314467 0.11177377 -0.0523002 0.08068033 0.08920238
-0.10403762 -0.066386536 0.1077828 0.08452482 0.022608843 0.0572439 -0.065944344 -0.012521495
-0.06876489 -0.065449215 -0.11747365 -0.055957396 -0.0715537 0.072831675 0.0023926364 -0.03372817
-0.09386712 0.07432973 0.06593817 -0.030386066 -0.07830649 0.06753792 0.025682004 0.070407644
0.104338884 0.12037489 -0.003622545 0.059712276 0.07882515 0.031272244 -0.0685812 0.1311572
0.0022187007 0.060369197 -0.05782742 0.023243837 -0.11445758 -0.08090691 -0.09179407 0.069265984
0.005438748 -0.0014249414 -0.09056416 0.03261061 -0.029121295 0.004718538 -0.102038294 -0.081647694
-0.043106757 -0.065819725 0.007905899 0.0025061094 0.023758842 0.007738642 -0.06751667 -0.08462277
00000000: 06b1 66bd cac4 d3bd 2bf0 a13d b94f 7cbd
00000010: 5b2d 9d3d 6f49 2a3d cdbf 063d 2ff4 debd
00000020: 9edf 35bd a25c 48bd 9451 46bd ec43 913d
00000030: 5c3f d43d de6b 963c 951f 423d 9136 3d3d
00000040: ad8d ce3c 73ec babd a7d2 003d 2b09 cfbd
00000050: 0865 74bd fa00 993c ce5d 98bd a07e 97bd
00000060: 6740 d3bd 614c 4a3c f8e1 9e3d 96b7 b03d
00000070: 89cb c83d ea89 603d 0d5e b63a 49d2 3c3c
00000080: 2fc1 f6bc ed20 603c 0d33 863d c017 98bc
00000090: 7896 55bc e66e 98bc 869a 47bc c0ec 6d3d
000000a0: b3a1 a13d 131a 04be 3e6d 48bd bca7 873d
000000b0: 2e9f c9bd 07fc b63d bbd5 733d 0630 9abd
000000c0: 23ab d23d 84f8 4e3d 9719 65bd b313 a5bc
000000d0: 690e 8f3d c0ca 9d3b afd1 b93d bb3a 5d3d
000000e0: 0109 d3bd ecec 0bbe 789a 283d 7455 cd3d
000000f0: d345 e7bd 4446 893c cd0d cf3d a537 943d
00000100: f585 9ebb 3657 b63d c2cc cc3d 8a0d 04be
00000110: 8cd7 ab3d 693e ccbc 8e5d f9bb af5e 9dbc
00000120: 1931 3f3b 6c14 36bd c711 e33d c7c2 9f3d
00000130: dea1 ebbc c065 623d 20b8 af3d c1ff b1bd
00000140: 7ddf 9abd 9e18 54bc 2f58 dc3d 7aa4 713d
00000150: 54c7 a33d 2323 f13c 6d87 aabd 346c 9e3d
00000160: 20e3 e4bd 6c63 94bd fda1 a23d 6fb6 ddbd
00000170: 6016 de3d 689c 723d c7b4 42bd a388 9cbd
00000180: 7b89 9e3c 902c 003d 1c1c 553c dac4 433d
00000190: 9902 e63d 8305 07bd d969 8abd ad1b cebd
000001a0: 4f6b b3bd f34c 2ebd 7ffe ac3d 85aa 79bc
000001b0: 2230 eebd 9400 443d 44ad 04be 136b 8bbc
000001c0: 04da 523d 196c 96bd 2e55 723d 04f0 7e3d
000001d0: fa1b f53d 3f61 f5bd c862 dbbc 18c4 78bd
000001e0: aff6 7c3d c82f 873d 06b1 78bd cbcf b83d
000001f0: cbad a73d b4e2 1f3d 4dd2 d6ba 20ab b2bd
00000200: e204 3c3d db18 f03d 6fd0 5a3d 1b0a a1bd
00000210: 4c3a bd3c eb5f 09bd e3e2 9d3d 4677 e33d
00000220: 2184 fabc 5795 a6bd cef9 adbd 7876 4e3c
00000230: 35cb ffbd dd59 383d 6819 b73b beae aebd
00000240: 0f36 d23d 56a9 cdbd 412f 383d 1c32 0cbe
00000250: c8b5 a73d 49e0 bf3d fc57 b23d 2fd6 c03d
00000260: 57b2 46bd 34ca 423d 0dc8 d23d 922e 473c
00000270: 59fa 64bd e0ae b33d 8af0 e73c ba8e f8bd
00000280: 6098 2f3d 2173 6ebd f80a e6bd 6a70 dabd
00000290: f48d b338 8b6b febc 19b6 da3d d5ef 6dbc
000002a0: 9db5 ddbc d44b 09be 3f90 cebc b9a2 de3d
000002b0: bd87 973d 2555 c4bd ff8f c8bc 76b4 063e
000002c0: 846a 4a3c bc94 f9bd 4a77 63bd d581 963c
000002d0: c51b 413d f43b 0bbd 6aaf c2bd c11a 6abd
000002e0: ce3c bebd 4e53 89bc 0fe2 babd fd80 cabd
000002f0: c9b8 353d 9e2d f33d 2472 513d 3d05 cb3d
00000300: f6b4 483d 64bf 45ba 0df7 883c baf3 72bd
00000310: a5e9 e43d bc38 56bd bb3b a53d bdaf b63d
00000320: ad11 d5bd aaf5 87bd 3bbd dc3d 591b ad3d
00000330: 2e36 b93c 9478 6a3d d40d 87bd f526 4dbc
00000340: 9bd4 8cbd 3d0a 86bd 0696 f0bd 9533 65bd
00000350: bf8a 92bd c628 953d c7cd 1c3b 8d26 0abd
00000360: 683d c0bd 2f3a 983d 970a 873d 33ec f8bc
00000370: 275f a0bd 5251 8a3d 1163 d23c e231 903d
00000380: a0af d53d 1c87 f63d 3868 6dbb dc94 743d
00000390: 156f a13d 5317 003d 4d74 8cbd 134e 063e
000003a0: 9f67 113b b145 773d 72dc 6cbd dc69 be3c
000003b0: bc68 eabd 86b2 a5bd 88fe bbbd 53db 8d3d
000003c0: 8637 b23b 19c5 baba b479 b9bd b492 053d
000003d0: c88f eebc f79d 9a3b 74f9 d0bd e836 a7bd
000003e0: b690 30bd 7ecc 86bd be87 013c 8a3d 243b
000003f0: e7a1 c23c 6f94 fd3b 2e46 8abd b44e adbd

lstm.bias_ih_l1 f4 [256]
-0.096866824 -0.04346903 -0.075864896 0.030141247 -0.08452585 -0.107248574 0.062941186 -0.0034312443
0.05157833 -0.01816305 -0.053364426 0.09203195 -0.040807333 0.027714457 0.063128695 -0.12157585
-0.13406554 0.0095677 -0.13498709 0.004573118 -0.027500771 -0.0062585897 -0.011770082 0.056478303
0.013550108 -0.095745645 0.02511478 0.027951391 0.060983878 -0.071160786 0.103101894 -0.116273396
0.111434795 0.028113663 0.076420754 0.085825995 -0.085475326 -0.091878705 -0.06158206 0.013170905
-0.04451181 -0.10371339 0.09657872 -0.10151181 0.098982275 0.046443716 0.10124129 -0.06061682
-0.114547156 -0.041569553 0.095008746 0.04160876 0.019553114 -0.07026137 -0.048734628 0.09383355
-0.06793756 -0.02629264 0.06702922 0.010718043 0.030399015 -0.0837429 -0.06747544 -0.05148842
-0.011751124 0.044301532 -0.09817121 -0.059770446 0.10354559 -0.11220334 0.003661234 -0.08973851
0.017803434 -0.07373935 0.08381549 0.03358701 0.042870414 -0.086004235 0.032787688 0.085406415
-0.028234448 -0.01645892 0.018435305 0.103110656 -0.029891709 -0.071630396 -0.0069941925 -0.01964125
0.04785098 -0.011449697 -0.009106198 0.026010064 0.013014504 0.0549735 0.10498303 0.04126797
-0.094781734 -0.12112183 -0.01301913 -0.05907125 -0.12798816 0.06080617 0.087606266 -0.036673643
-0.06127077 -0.109347865 -0.025040999 0.04434296 0.035441954 0.08920485 -0.045867708 0.03174846
0.10552428 -0.06549712 0.05075892 -0.072888754 0.03759519 0.08951791 0.114829734 -0.13332166
0.02538085 -0.067883424 -0.10647533 0.0068282736 -0.062182944 -0.06408887 0.091874324 0.06412842
-0.09090654 0.095334426 -0.122967236 0.019336572 -0.03667363 0.007317567 -0.04466989 0.07062837
-0.0121931685 -0.09424974 0.11164385 -0.04813999 -0.11485044 -0.03938082 -0.049399335 -0.1012819
0.040638994 -0.056582145 -0.06651408 -0.08629866 -0.06255128 -0.053233232 0.0053240946 0.045773722
-0.051762547 -0.06638514 -0.03455132 -0.073506095 -0.052629754 0.112383835 0.09196009 0.029677138
0.057809882 0.08777144 0.0995754 -0.051015813 0.04050057 -0.048879035 0.07920507 0.076346934
0.09885654 -0.07956778 -0.036408905 -0.094882876 -0.0016341392 6.290845e-05 -0.04450055 0.034354627
0.070315726 -0.04284127 0.11346931 -0.1168778 -0.08682633 -0.10569411 0.044625614 0.07193893
0.043137517 0.08458231 0.047934778 -0.10068775 -0.05416277 0.08941178 -0.12588938 0.011256885
-0.09212602 0.08469365 0.06838916 -0.030268524 0.007908444 -0.060669117 0.10512838 -0.12030288
0.06841255 -0.0020593053 0.0028141635 0.019685904 0.101254046 -0.049558647 0.11267772 -0.04776648
-0.010831773 -0.0142286075 0.11189721 -0.09778499 -0.050453678 -0.085866354 -0.09241135 -0.10484003
-0.08281472 -0.053708352 -0.13792254 0.081241034 -0.11135021 0.10019832 -0.013118736 -0.06998016
-0.039011493 0.06141926 -0.11580975 0.09544367 0.07722716 -0.11952648 -0.011752907 0.002713892
0.047075454 -0.040236555 -0.109635964 0.029563474 0.115172 -0.044584144 -0.07944179 0.06335501
0.0491775 -0.050586097 -0.08816162 -0.027738908 -0.032799017 -0.11926059 -0.10885183 -0.08982203
-0.07479616 -0.11382657 -0.09294902 -0.010800507 0.0097394325 -0.09270415 0.06330306 -0.104676336
00000000: 1d62 c6bd 950c 32bd 0e5f 9bbd c7ea f63c
00000010: e41b adbd 24a5 dbbd 4fe7 803d bade 60bb
00000020: cd43 533d adca 94bc a894 5abd 3f7b bc3d
00000030: 9725 27bd 6e09 e33c 9e49 813d c2fc f8bd
00000040: 7a48 09be d8c1 1c3c 0e3a 0abe 18da 953b
00000050: 4c49 e1bc db14 cdbb 4dd7 40bc cb55 673d
00000060: 4601 5e3c 4b16 c4bd 83bd cd3c 51fa e43c
00000070: 3bca 793d bfbc 91bd 1627 d33d bf20 eebd
00000080: ed37 e43d a04e e63c 7c82 9c3d 8ac5 af3d
00000090: b00d afbd e72a bcbd 783d 7cbd c8ca 573c
000000a0: 0452 36bd b067 d4bd 10cb c53d 6de5 cfbd
000000b0: 38b7 ca3d c43b 3e3d 9857 cf3d 5849 78bd
000000c0: b397 eabd d644 2abd f293 c23d f26d 2a3d
000000d0: da2d a03c 31e5 8fbd f69d 47bd ce2b c03d
000000e0: d922 8bbd aa63 d7bc 9e46 893d bb9a 2f3c
000000f0: 5b07 f93c 6681 abbd 9030 8abd 86e5 52bd
00000100: c987 40bc 8675 353d fd0d c9bd dbd1 74bd
00000110: b60f d43d ddca e5bd 50f1 6f3b d3c8 b7bd
00000120: 82d8 913c a804 97bd 75a7 ab3d 8892 093d
00000130: e398 2f3d fd22 b0bd 624c 063d 8fe9 ae3d
00000140: ee4b e7bc dbd4 86bc a305 973c ae2b d33d
00000150: 75df f4bc f5b2 92bd 8a2f e5bb b0e6 a0bc
00000160: 64ff 433d 8397 3bbc 2a32 15bc 0f13 d53c
00000170: c93a 553c e52b 613d 5801 d73d 9a08 293d
00000180: ed1c c2bd b90e f8bd 304e 55bc b2f4 71bd
00000190: 540f 03be e40f 793d ea6a b33d 1a37 16bd
000001a0: 0ff7 7abd c6f1 dfbd c822 cdbc f7a0 353d
000001b0: 952b 113d 08b1 b63d c7df 3bbd ac0a 023d
000001c0: 1d1d d83d 5b23 86bd 96e8 4f3d b346 95bd
000001d0: 6afd 193d 2a55 b73d da2b eb3d 7985 08be
000001e0: 80eb cf3c 7706 8bbd bd0f dabd b6bf df3b
000001f0: 8bb3 7ebd 0741 83bd 9b28 bc3d c355 833d
00000200: 352d babd b23e c33d 3fd6 fbbd bb67 9e3c
00000210: 1737 16bd 33c8 ef3b c6f7 36bd 9ba5 903d
00000220: dbc5 47bc 0206 c1bd 88a5 e43d 702e 45bd
00000230: b536 ebbd c84d 21bd f556 4abd e36c cfbd
00000240: 1375 263d aec2 67bd 8938 88bd 5abd b0bd
00000250: e31a 80bd 170b 5abd be75 ae3b 3a7d 3b3d
00000260: f704 54bd eff4 87bd af85 0dbd 5d8a 96bd
00000270: 4c92 57bd 7f29 e63d 9255 bc3d 781d f33c
00000280: 0eca 6c3d 83c1 b33d 30ee cb3d f5f5 50bd
00000290: ede3 253d 6235 48bd 4536 a23d c85b 9c3d
000002a0: 4c75 ca3d 6ff4 a2bd 8121 15bd f451 c2bd
000002b0: 9d30 d6ba b8ed 8338 3546 36bd 70b7 0c3d
000002c0: b101 903d 547a 2fbd 9962 e83d a15d efbd
000002d0: 01d2 b1bd 2776 d8bd 59c9 363d b854 933d
000002e0: f7b0 303d 7d39 ad3d 4257 443d 6135 cebd
000002f0: c8d9 5dbd 861d b73d 25e9 00be cc6e 383c
00000300: 91ac bcbd dd73 ad3d 9e0f 8c3d b2f5 f7bc
00000310: 6b92 013c 2e80 78bd 8c4d d73d 5b61 f6bd
00000320: e11b 8c3d 69f5 06bb d46d 383b 5544 a13c
00000330: 485e cf3d 02fe 4abd 94c3 e63d c9a6 43bd
00000340: c077 31bc 1b1f 69bc 5d2a e53d 7f43 c8bd
00000350: 84a8 4ebd b3da afbd 2942 bdbd 5fb6 d6bd
00000360: c49a a9bd 4afd 5bbd 913b 0dbe b361 a63d
00000370: 940b e4bd c734 cd3d f8ef 56bc c251 8fbd
00000380: 84ca 1fbd c392 7b3d aa2d edbd f977 c33d
00000390: 4629 9e3d 4dca f4bd 448f 40bc 8ddb 313b
000003a0: 31d2 403d 16cf 24bd d288 e0bd 192f f23c
000003b0: 4cdf eb3d dd9d 36bd 61b2 a2bd 45c0 813d
000003c0: 596e 493d 5e33 4fbd 148e b4bd b53c e3bc
000003d0: 4358 06bd e53e f4bd b5ed debd 9df4 b7bd
000003e0: bb2e 99bd e81d e9bd 0e5c bebd 9cf4 30bc
000003f0: 2492 1f3c acdb bdbd 09a5 813d 8c60 d6bd
